<?xml version="1.0"?>
<net name="Model0" version="11">
	<layers>
		<layer id="10" name="x" type="Parameter" version="opset1">
			<data shape="?,?" element_type="i64" />
			<output>
				<port id="0" precision="I64" names="x">
					<dim>-1</dim>
					<dim>-1</dim>
				</port>
			</output>
		</layer>
		<layer id="9" name="x_lengths" type="Parameter" version="opset1">
			<data shape="?" element_type="i64" />
			<output>
				<port id="0" precision="I64" names="x_lengths">
					<dim>-1</dim>
				</port>
			</output>
		</layer>
		<layer id="8" name="sid" type="Parameter" version="opset1">
			<data shape="?" element_type="i64" />
			<output>
				<port id="0" precision="I64" names="sid">
					<dim>-1</dim>
				</port>
			</output>
		</layer>
		<layer id="7" name="tone" type="Parameter" version="opset1">
			<data shape="?,?" element_type="i64" />
			<output>
				<port id="0" precision="I64" names="tone">
					<dim>-1</dim>
					<dim>-1</dim>
				</port>
			</output>
		</layer>
		<layer id="6" name="language" type="Parameter" version="opset1">
			<data shape="?,?" element_type="i64" />
			<output>
				<port id="0" precision="I64" names="language">
					<dim>-1</dim>
					<dim>-1</dim>
				</port>
			</output>
		</layer>
		<layer id="5" name="bert" type="Parameter" version="opset1">
			<data shape="?,1024,?" element_type="f32" />
			<output>
				<port id="0" precision="FP32" names="bert">
					<dim>-1</dim>
					<dim>1024</dim>
					<dim>-1</dim>
				</port>
			</output>
		</layer>
		<layer id="4" name="ja_bert" type="Parameter" version="opset1">
			<data shape="?,768,?" element_type="f32" />
			<output>
				<port id="0" precision="FP32" names="ja_bert">
					<dim>-1</dim>
					<dim>768</dim>
					<dim>-1</dim>
				</port>
			</output>
		</layer>
		<layer id="3" name="noise_scale" type="Parameter" version="opset1">
			<data shape="" element_type="f32" />
			<output>
				<port id="0" precision="FP32" names="noise_scale" />
			</output>
		</layer>
		<layer id="2" name="length_scale" type="Parameter" version="opset1">
			<data shape="" element_type="f32" />
			<output>
				<port id="0" precision="FP32" names="length_scale" />
			</output>
		</layer>
		<layer id="1" name="noise_scale_w" type="Parameter" version="opset1">
			<data shape="" element_type="f32" />
			<output>
				<port id="0" precision="FP32" names="noise_scale_w" />
			</output>
		</layer>
		<layer id="0" name="sdp_ratio" type="Parameter" version="opset1">
			<data shape="" element_type="f32" />
			<output>
				<port id="0" precision="FP32" names="sdp_ratio" />
			</output>
		</layer>
		<layer id="11" name="aten::arange/Constant" type="Const" version="opset1">
			<data element_type="i32" shape="" offset="0" size="4" />
			<output>
				<port id="0" precision="I32" />
			</output>
		</layer>
		<layer id="12" name="__module.model.enc_p/aten::arange/Constant" type="Const" version="opset1">
			<data element_type="i32" shape="" offset="0" size="4" />
			<output>
				<port id="0" precision="I32" />
			</output>
		</layer>
		<layer id="13" name="self.model.enc_p.emb.weight" type="Const" version="opset1">
			<data element_type="u8" shape="219, 192" offset="4" size="42048" />
			<output>
				<port id="0" precision="U8">
					<dim>219</dim>
					<dim>192</dim>
				</port>
			</output>
		</layer>
		<layer id="14" name="Convert_995653" type="Convert" version="opset1">
			<data destination_type="f16" />
			<input>
				<port id="0" precision="U8">
					<dim>219</dim>
					<dim>192</dim>
				</port>
			</input>
			<output>
				<port id="1" precision="FP16">
					<dim>219</dim>
					<dim>192</dim>
				</port>
			</output>
		</layer>
		<layer id="15" name="self.model.enc_p.emb.weight/zero_point" type="Const" version="opset1">
			<data element_type="u8" shape="219, 1" offset="42052" size="219" />
			<output>
				<port id="0" precision="U8">
					<dim>219</dim>
					<dim>1</dim>
				</port>
			</output>
		</layer>
		<layer id="16" name="Convert_995656" type="Convert" version="opset1">
			<data destination_type="f16" />
			<input>
				<port id="0" precision="U8">
					<dim>219</dim>
					<dim>1</dim>
				</port>
			</input>
			<output>
				<port id="1" precision="FP16">
					<dim>219</dim>
					<dim>1</dim>
				</port>
			</output>
		</layer>
		<layer id="17" name="self.model.enc_p.emb.weight/zero_point/subtract" type="Subtract" version="opset1">
			<data auto_broadcast="numpy" />
			<input>
				<port id="0" precision="FP16">
					<dim>219</dim>
					<dim>192</dim>
				</port>
				<port id="1" precision="FP16">
					<dim>219</dim>
					<dim>1</dim>
				</port>
			</input>
			<output>
				<port id="2" precision="FP16">
					<dim>219</dim>
					<dim>192</dim>
				</port>
			</output>
		</layer>
		<layer id="18" name="self.model.enc_p.emb.weight/scale" type="Const" version="opset1">
			<data element_type="f16" shape="219, 1" offset="42271" size="438" />
			<output>
				<port id="0" precision="FP16">
					<dim>219</dim>
					<dim>1</dim>
				</port>
			</output>
		</layer>
		<layer id="19" name="self.model.enc_p.emb.weight/fq_weights_0" type="Multiply" version="opset1">
			<data auto_broadcast="numpy" />
			<input>
				<port id="0" precision="FP16">
					<dim>219</dim>
					<dim>192</dim>
				</port>
				<port id="1" precision="FP16">
					<dim>219</dim>
					<dim>1</dim>
				</port>
			</input>
			<output>
				<port id="2" precision="FP16">
					<dim>219</dim>
					<dim>192</dim>
				</port>
			</output>
		</layer>
		<layer id="20" name="self.model.enc_p.emb.weight/fq_weights_0/convert" type="Convert" version="opset1">
			<data destination_type="f32" />
			<input>
				<port id="0" precision="FP16">
					<dim>219</dim>
					<dim>192</dim>
				</port>
			</input>
			<output>
				<port id="1" precision="FP32">
					<dim>219</dim>
					<dim>192</dim>
				</port>
			</output>
		</layer>
		<layer id="21" name="__module.model.enc_p.emb/aten::embedding/Convert" type="Convert" version="opset1">
			<data destination_type="i32" />
			<input>
				<port id="0" precision="I64">
					<dim>-1</dim>
					<dim>-1</dim>
				</port>
			</input>
			<output>
				<port id="1" precision="I32">
					<dim>-1</dim>
					<dim>-1</dim>
				</port>
			</output>
		</layer>
		<layer id="22" name="__module.model.enc_p.emb/aten::embedding/Constant" type="Const" version="opset1">
			<data element_type="i32" shape="" offset="0" size="4" />
			<output>
				<port id="0" precision="I32" />
			</output>
		</layer>
		<layer id="23" name="__module.model.enc_p.emb/aten::embedding/Gather" type="Gather" version="opset8">
			<data batch_dims="0" />
			<input>
				<port id="0" precision="FP32">
					<dim>219</dim>
					<dim>192</dim>
				</port>
				<port id="1" precision="I32">
					<dim>-1</dim>
					<dim>-1</dim>
				</port>
				<port id="2" precision="I32" />
			</input>
			<output>
				<port id="3" precision="FP32" names="249">
					<dim>-1</dim>
					<dim>-1</dim>
					<dim>192</dim>
				</port>
			</output>
		</layer>
		<layer id="24" name="self.model.enc_p.tone_emb.weight" type="Const" version="opset1">
			<data element_type="u8" shape="16, 192" offset="42709" size="3072" />
			<output>
				<port id="0" precision="U8">
					<dim>16</dim>
					<dim>192</dim>
				</port>
			</output>
		</layer>
		<layer id="25" name="Convert_1442206" type="Convert" version="opset1">
			<data destination_type="f16" />
			<input>
				<port id="0" precision="U8">
					<dim>16</dim>
					<dim>192</dim>
				</port>
			</input>
			<output>
				<port id="1" precision="FP16">
					<dim>16</dim>
					<dim>192</dim>
				</port>
			</output>
		</layer>
		<layer id="26" name="self.model.enc_p.tone_emb.weight/zero_point" type="Const" version="opset1">
			<data element_type="u8" shape="16, 1" offset="45781" size="16" />
			<output>
				<port id="0" precision="U8">
					<dim>16</dim>
					<dim>1</dim>
				</port>
			</output>
		</layer>
		<layer id="27" name="Convert_1442209" type="Convert" version="opset1">
			<data destination_type="f16" />
			<input>
				<port id="0" precision="U8">
					<dim>16</dim>
					<dim>1</dim>
				</port>
			</input>
			<output>
				<port id="1" precision="FP16">
					<dim>16</dim>
					<dim>1</dim>
				</port>
			</output>
		</layer>
		<layer id="28" name="self.model.enc_p.tone_emb.weight/zero_point/subtract" type="Subtract" version="opset1">
			<data auto_broadcast="numpy" />
			<input>
				<port id="0" precision="FP16">
					<dim>16</dim>
					<dim>192</dim>
				</port>
				<port id="1" precision="FP16">
					<dim>16</dim>
					<dim>1</dim>
				</port>
			</input>
			<output>
				<port id="2" precision="FP16">
					<dim>16</dim>
					<dim>192</dim>
				</port>
			</output>
		</layer>
		<layer id="29" name="self.model.enc_p.tone_emb.weight/scale" type="Const" version="opset1">
			<data element_type="f16" shape="16, 1" offset="45797" size="32" />
			<output>
				<port id="0" precision="FP16">
					<dim>16</dim>
					<dim>1</dim>
				</port>
			</output>
		</layer>
		<layer id="30" name="self.model.enc_p.tone_emb.weight/fq_weights_0" type="Multiply" version="opset1">
			<data auto_broadcast="numpy" />
			<input>
				<port id="0" precision="FP16">
					<dim>16</dim>
					<dim>192</dim>
				</port>
				<port id="1" precision="FP16">
					<dim>16</dim>
					<dim>1</dim>
				</port>
			</input>
			<output>
				<port id="2" precision="FP16">
					<dim>16</dim>
					<dim>192</dim>
				</port>
			</output>
		</layer>
		<layer id="31" name="self.model.enc_p.tone_emb.weight/fq_weights_0/convert" type="Convert" version="opset1">
			<data destination_type="f32" />
			<input>
				<port id="0" precision="FP16">
					<dim>16</dim>
					<dim>192</dim>
				</port>
			</input>
			<output>
				<port id="1" precision="FP32">
					<dim>16</dim>
					<dim>192</dim>
				</port>
			</output>
		</layer>
		<layer id="32" name="__module.model.enc_p.tone_emb/aten::embedding/Convert" type="Convert" version="opset1">
			<data destination_type="i32" />
			<input>
				<port id="0" precision="I64">
					<dim>-1</dim>
					<dim>-1</dim>
				</port>
			</input>
			<output>
				<port id="1" precision="I32">
					<dim>-1</dim>
					<dim>-1</dim>
				</port>
			</output>
		</layer>
		<layer id="33" name="__module.model.enc_p.tone_emb/aten::embedding/Constant" type="Const" version="opset1">
			<data element_type="i32" shape="" offset="0" size="4" />
			<output>
				<port id="0" precision="I32" />
			</output>
		</layer>
		<layer id="34" name="__module.model.enc_p.tone_emb/aten::embedding/Gather" type="Gather" version="opset8">
			<data batch_dims="0" />
			<input>
				<port id="0" precision="FP32">
					<dim>16</dim>
					<dim>192</dim>
				</port>
				<port id="1" precision="I32">
					<dim>-1</dim>
					<dim>-1</dim>
				</port>
				<port id="2" precision="I32" />
			</input>
			<output>
				<port id="3" precision="FP32" names="251">
					<dim>-1</dim>
					<dim>-1</dim>
					<dim>192</dim>
				</port>
			</output>
		</layer>
		<layer id="35" name="__module.model.enc_p/aten::add/Add" type="Add" version="opset1">
			<data auto_broadcast="numpy" />
			<input>
				<port id="0" precision="FP32">
					<dim>-1</dim>
					<dim>-1</dim>
					<dim>192</dim>
				</port>
				<port id="1" precision="FP32">
					<dim>-1</dim>
					<dim>-1</dim>
					<dim>192</dim>
				</port>
			</input>
			<output>
				<port id="2" precision="FP32" names="252">
					<dim>-1</dim>
					<dim>-1</dim>
					<dim>192</dim>
				</port>
			</output>
		</layer>
		<layer id="36" name="self.model.enc_p.language_emb.weight" type="Const" version="opset1">
			<data element_type="u8" shape="8, 192" offset="45829" size="1536" />
			<output>
				<port id="0" precision="U8">
					<dim>8</dim>
					<dim>192</dim>
				</port>
			</output>
		</layer>
		<layer id="37" name="Convert_1442415" type="Convert" version="opset1">
			<data destination_type="f16" />
			<input>
				<port id="0" precision="U8">
					<dim>8</dim>
					<dim>192</dim>
				</port>
			</input>
			<output>
				<port id="1" precision="FP16">
					<dim>8</dim>
					<dim>192</dim>
				</port>
			</output>
		</layer>
		<layer id="38" name="self.model.enc_p.language_emb.weight/zero_point" type="Const" version="opset1">
			<data element_type="u8" shape="8, 1" offset="47365" size="8" />
			<output>
				<port id="0" precision="U8">
					<dim>8</dim>
					<dim>1</dim>
				</port>
			</output>
		</layer>
		<layer id="39" name="Convert_1442418" type="Convert" version="opset1">
			<data destination_type="f16" />
			<input>
				<port id="0" precision="U8">
					<dim>8</dim>
					<dim>1</dim>
				</port>
			</input>
			<output>
				<port id="1" precision="FP16">
					<dim>8</dim>
					<dim>1</dim>
				</port>
			</output>
		</layer>
		<layer id="40" name="self.model.enc_p.language_emb.weight/zero_point/subtract" type="Subtract" version="opset1">
			<data auto_broadcast="numpy" />
			<input>
				<port id="0" precision="FP16">
					<dim>8</dim>
					<dim>192</dim>
				</port>
				<port id="1" precision="FP16">
					<dim>8</dim>
					<dim>1</dim>
				</port>
			</input>
			<output>
				<port id="2" precision="FP16">
					<dim>8</dim>
					<dim>192</dim>
				</port>
			</output>
		</layer>
		<layer id="41" name="self.model.enc_p.language_emb.weight/scale" type="Const" version="opset1">
			<data element_type="f16" shape="8, 1" offset="47373" size="16" />
			<output>
				<port id="0" precision="FP16">
					<dim>8</dim>
					<dim>1</dim>
				</port>
			</output>
		</layer>
		<layer id="42" name="self.model.enc_p.language_emb.weight/fq_weights_0" type="Multiply" version="opset1">
			<data auto_broadcast="numpy" />
			<input>
				<port id="0" precision="FP16">
					<dim>8</dim>
					<dim>192</dim>
				</port>
				<port id="1" precision="FP16">
					<dim>8</dim>
					<dim>1</dim>
				</port>
			</input>
			<output>
				<port id="2" precision="FP16">
					<dim>8</dim>
					<dim>192</dim>
				</port>
			</output>
		</layer>
		<layer id="43" name="self.model.enc_p.language_emb.weight/fq_weights_0/convert" type="Convert" version="opset1">
			<data destination_type="f32" />
			<input>
				<port id="0" precision="FP16">
					<dim>8</dim>
					<dim>192</dim>
				</port>
			</input>
			<output>
				<port id="1" precision="FP32">
					<dim>8</dim>
					<dim>192</dim>
				</port>
			</output>
		</layer>
		<layer id="44" name="__module.model.enc_p.language_emb/aten::embedding/Convert" type="Convert" version="opset1">
			<data destination_type="i32" />
			<input>
				<port id="0" precision="I64">
					<dim>-1</dim>
					<dim>-1</dim>
				</port>
			</input>
			<output>
				<port id="1" precision="I32">
					<dim>-1</dim>
					<dim>-1</dim>
				</port>
			</output>
		</layer>
		<layer id="45" name="__module.model.enc_p.language_emb/aten::embedding/Constant" type="Const" version="opset1">
			<data element_type="i32" shape="" offset="0" size="4" />
			<output>
				<port id="0" precision="I32" />
			</output>
		</layer>
		<layer id="46" name="__module.model.enc_p.language_emb/aten::embedding/Gather" type="Gather" version="opset8">
			<data batch_dims="0" />
			<input>
				<port id="0" precision="FP32">
					<dim>8</dim>
					<dim>192</dim>
				</port>
				<port id="1" precision="I32">
					<dim>-1</dim>
					<dim>-1</dim>
				</port>
				<port id="2" precision="I32" />
			</input>
			<output>
				<port id="3" precision="FP32" names="254">
					<dim>-1</dim>
					<dim>-1</dim>
					<dim>192</dim>
				</port>
			</output>
		</layer>
		<layer id="47" name="__module.model.enc_p/aten::add/Add_1" type="Add" version="opset1">
			<data auto_broadcast="numpy" />
			<input>
				<port id="0" precision="FP32">
					<dim>-1</dim>
					<dim>-1</dim>
					<dim>192</dim>
				</port>
				<port id="1" precision="FP32">
					<dim>-1</dim>
					<dim>-1</dim>
					<dim>192</dim>
				</port>
			</input>
			<output>
				<port id="2" precision="FP32" names="255">
					<dim>-1</dim>
					<dim>-1</dim>
					<dim>192</dim>
				</port>
			</output>
		</layer>
		<layer id="48" name="self.model.enc_p.bert_proj.weight" type="Const" version="opset1">
			<data element_type="u8" shape="192, 1024, 1" offset="47389" size="196608" />
			<output>
				<port id="0" precision="U8">
					<dim>192</dim>
					<dim>1024</dim>
					<dim>1</dim>
				</port>
			</output>
		</layer>
		<layer id="49" name="Convert_820413" type="Convert" version="opset1">
			<data destination_type="f16" />
			<input>
				<port id="0" precision="U8">
					<dim>192</dim>
					<dim>1024</dim>
					<dim>1</dim>
				</port>
			</input>
			<output>
				<port id="1" precision="FP16">
					<dim>192</dim>
					<dim>1024</dim>
					<dim>1</dim>
				</port>
			</output>
		</layer>
		<layer id="50" name="self.model.enc_p.bert_proj.weight/zero_point" type="Const" version="opset1">
			<data element_type="u8" shape="192, 1, 1" offset="243997" size="192" />
			<output>
				<port id="0" precision="U8">
					<dim>192</dim>
					<dim>1</dim>
					<dim>1</dim>
				</port>
			</output>
		</layer>
		<layer id="51" name="Convert_820416" type="Convert" version="opset1">
			<data destination_type="f16" />
			<input>
				<port id="0" precision="U8">
					<dim>192</dim>
					<dim>1</dim>
					<dim>1</dim>
				</port>
			</input>
			<output>
				<port id="1" precision="FP16">
					<dim>192</dim>
					<dim>1</dim>
					<dim>1</dim>
				</port>
			</output>
		</layer>
		<layer id="52" name="self.model.enc_p.bert_proj.weight/zero_point/subtract" type="Subtract" version="opset1">
			<data auto_broadcast="numpy" />
			<input>
				<port id="0" precision="FP16">
					<dim>192</dim>
					<dim>1024</dim>
					<dim>1</dim>
				</port>
				<port id="1" precision="FP16">
					<dim>192</dim>
					<dim>1</dim>
					<dim>1</dim>
				</port>
			</input>
			<output>
				<port id="2" precision="FP16">
					<dim>192</dim>
					<dim>1024</dim>
					<dim>1</dim>
				</port>
			</output>
		</layer>
		<layer id="53" name="self.model.enc_p.bert_proj.weight/scale" type="Const" version="opset1">
			<data element_type="f16" shape="192, 1, 1" offset="244189" size="384" />
			<output>
				<port id="0" precision="FP16">
					<dim>192</dim>
					<dim>1</dim>
					<dim>1</dim>
				</port>
			</output>
		</layer>
		<layer id="54" name="self.model.enc_p.bert_proj.weight/fq_weights_1" type="Multiply" version="opset1">
			<data auto_broadcast="numpy" />
			<input>
				<port id="0" precision="FP16">
					<dim>192</dim>
					<dim>1024</dim>
					<dim>1</dim>
				</port>
				<port id="1" precision="FP16">
					<dim>192</dim>
					<dim>1</dim>
					<dim>1</dim>
				</port>
			</input>
			<output>
				<port id="2" precision="FP16">
					<dim>192</dim>
					<dim>1024</dim>
					<dim>1</dim>
				</port>
			</output>
		</layer>
		<layer id="55" name="self.model.enc_p.bert_proj.weight/fq_weights_1/convert" type="Convert" version="opset1">
			<data destination_type="f32" />
			<input>
				<port id="0" precision="FP16">
					<dim>192</dim>
					<dim>1024</dim>
					<dim>1</dim>
				</port>
			</input>
			<output>
				<port id="1" precision="FP32">
					<dim>192</dim>
					<dim>1024</dim>
					<dim>1</dim>
				</port>
			</output>
		</layer>
		<layer id="56" name="__module.model.enc_p.bert_proj/aten::_convolution/Convolution" type="Convolution" version="opset1">
			<data strides="1" dilations="1" pads_begin="0" pads_end="0" auto_pad="explicit" />
			<input>
				<port id="0" precision="FP32">
					<dim>-1</dim>
					<dim>1024</dim>
					<dim>-1</dim>
				</port>
				<port id="1" precision="FP32">
					<dim>192</dim>
					<dim>1024</dim>
					<dim>1</dim>
				</port>
			</input>
			<output>
				<port id="2" precision="FP32">
					<dim>-1</dim>
					<dim>192</dim>
					<dim>-1</dim>
				</port>
			</output>
		</layer>
		<layer id="57" name="__module.model.enc_p.bert_proj/aten::_convolution/Reshape" type="Const" version="opset1">
			<data element_type="f32" shape="1, 192, 1" offset="244573" size="768" />
			<output>
				<port id="0" precision="FP32">
					<dim>1</dim>
					<dim>192</dim>
					<dim>1</dim>
				</port>
			</output>
		</layer>
		<layer id="58" name="__module.model.enc_p.bert_proj/aten::_convolution/Add" type="Add" version="opset1">
			<data auto_broadcast="numpy" />
			<input>
				<port id="0" precision="FP32">
					<dim>-1</dim>
					<dim>192</dim>
					<dim>-1</dim>
				</port>
				<port id="1" precision="FP32">
					<dim>1</dim>
					<dim>192</dim>
					<dim>1</dim>
				</port>
			</input>
			<output>
				<port id="2" precision="FP32" names="238">
					<dim>-1</dim>
					<dim>192</dim>
					<dim>-1</dim>
				</port>
			</output>
		</layer>
		<layer id="59" name="__module.model.enc_p/aten::transpose/Constant" type="Const" version="opset1">
			<data element_type="i32" shape="3" offset="245341" size="12" />
			<output>
				<port id="0" precision="I32">
					<dim>3</dim>
				</port>
			</output>
		</layer>
		<layer id="60" name="__module.model.enc_p/aten::transpose/Transpose" type="Transpose" version="opset1">
			<input>
				<port id="0" precision="FP32">
					<dim>-1</dim>
					<dim>192</dim>
					<dim>-1</dim>
				</port>
				<port id="1" precision="I32">
					<dim>3</dim>
				</port>
			</input>
			<output>
				<port id="2" precision="FP32" names="239,bert_emb">
					<dim>-1</dim>
					<dim>-1</dim>
					<dim>192</dim>
				</port>
			</output>
		</layer>
		<layer id="61" name="__module.model.enc_p/aten::add/Add_2" type="Add" version="opset1">
			<data auto_broadcast="numpy" />
			<input>
				<port id="0" precision="FP32">
					<dim>-1</dim>
					<dim>-1</dim>
					<dim>192</dim>
				</port>
				<port id="1" precision="FP32">
					<dim>-1</dim>
					<dim>-1</dim>
					<dim>192</dim>
				</port>
			</input>
			<output>
				<port id="2" precision="FP32" names="256">
					<dim>-1</dim>
					<dim>-1</dim>
					<dim>192</dim>
				</port>
			</output>
		</layer>
		<layer id="62" name="self.model.enc_p.ja_bert_proj.weight" type="Const" version="opset1">
			<data element_type="u8" shape="192, 768, 1" offset="245353" size="147456" />
			<output>
				<port id="0" precision="U8">
					<dim>192</dim>
					<dim>768</dim>
					<dim>1</dim>
				</port>
			</output>
		</layer>
		<layer id="63" name="Convert_876217" type="Convert" version="opset1">
			<data destination_type="f16" />
			<input>
				<port id="0" precision="U8">
					<dim>192</dim>
					<dim>768</dim>
					<dim>1</dim>
				</port>
			</input>
			<output>
				<port id="1" precision="FP16">
					<dim>192</dim>
					<dim>768</dim>
					<dim>1</dim>
				</port>
			</output>
		</layer>
		<layer id="64" name="self.model.enc_p.ja_bert_proj.weight/zero_point" type="Const" version="opset1">
			<data element_type="u8" shape="192, 1, 1" offset="392809" size="192" />
			<output>
				<port id="0" precision="U8">
					<dim>192</dim>
					<dim>1</dim>
					<dim>1</dim>
				</port>
			</output>
		</layer>
		<layer id="65" name="Convert_876220" type="Convert" version="opset1">
			<data destination_type="f16" />
			<input>
				<port id="0" precision="U8">
					<dim>192</dim>
					<dim>1</dim>
					<dim>1</dim>
				</port>
			</input>
			<output>
				<port id="1" precision="FP16">
					<dim>192</dim>
					<dim>1</dim>
					<dim>1</dim>
				</port>
			</output>
		</layer>
		<layer id="66" name="self.model.enc_p.ja_bert_proj.weight/zero_point/subtract" type="Subtract" version="opset1">
			<data auto_broadcast="numpy" />
			<input>
				<port id="0" precision="FP16">
					<dim>192</dim>
					<dim>768</dim>
					<dim>1</dim>
				</port>
				<port id="1" precision="FP16">
					<dim>192</dim>
					<dim>1</dim>
					<dim>1</dim>
				</port>
			</input>
			<output>
				<port id="2" precision="FP16">
					<dim>192</dim>
					<dim>768</dim>
					<dim>1</dim>
				</port>
			</output>
		</layer>
		<layer id="67" name="self.model.enc_p.ja_bert_proj.weight/scale" type="Const" version="opset1">
			<data element_type="f16" shape="192, 1, 1" offset="393001" size="384" />
			<output>
				<port id="0" precision="FP16">
					<dim>192</dim>
					<dim>1</dim>
					<dim>1</dim>
				</port>
			</output>
		</layer>
		<layer id="68" name="self.model.enc_p.ja_bert_proj.weight/fq_weights_1" type="Multiply" version="opset1">
			<data auto_broadcast="numpy" />
			<input>
				<port id="0" precision="FP16">
					<dim>192</dim>
					<dim>768</dim>
					<dim>1</dim>
				</port>
				<port id="1" precision="FP16">
					<dim>192</dim>
					<dim>1</dim>
					<dim>1</dim>
				</port>
			</input>
			<output>
				<port id="2" precision="FP16">
					<dim>192</dim>
					<dim>768</dim>
					<dim>1</dim>
				</port>
			</output>
		</layer>
		<layer id="69" name="self.model.enc_p.ja_bert_proj.weight/fq_weights_1/convert" type="Convert" version="opset1">
			<data destination_type="f32" />
			<input>
				<port id="0" precision="FP16">
					<dim>192</dim>
					<dim>768</dim>
					<dim>1</dim>
				</port>
			</input>
			<output>
				<port id="1" precision="FP32">
					<dim>192</dim>
					<dim>768</dim>
					<dim>1</dim>
				</port>
			</output>
		</layer>
		<layer id="70" name="__module.model.enc_p.ja_bert_proj/aten::_convolution/Convolution" type="Convolution" version="opset1">
			<data strides="1" dilations="1" pads_begin="0" pads_end="0" auto_pad="explicit" />
			<input>
				<port id="0" precision="FP32">
					<dim>-1</dim>
					<dim>768</dim>
					<dim>-1</dim>
				</port>
				<port id="1" precision="FP32">
					<dim>192</dim>
					<dim>768</dim>
					<dim>1</dim>
				</port>
			</input>
			<output>
				<port id="2" precision="FP32">
					<dim>-1</dim>
					<dim>192</dim>
					<dim>-1</dim>
				</port>
			</output>
		</layer>
		<layer id="71" name="__module.model.enc_p.ja_bert_proj/aten::_convolution/Reshape" type="Const" version="opset1">
			<data element_type="f32" shape="1, 192, 1" offset="393385" size="768" />
			<output>
				<port id="0" precision="FP32">
					<dim>1</dim>
					<dim>192</dim>
					<dim>1</dim>
				</port>
			</output>
		</layer>
		<layer id="72" name="__module.model.enc_p.ja_bert_proj/aten::_convolution/Add" type="Add" version="opset1">
			<data auto_broadcast="numpy" />
			<input>
				<port id="0" precision="FP32">
					<dim>-1</dim>
					<dim>192</dim>
					<dim>-1</dim>
				</port>
				<port id="1" precision="FP32">
					<dim>1</dim>
					<dim>192</dim>
					<dim>1</dim>
				</port>
			</input>
			<output>
				<port id="2" precision="FP32" names="246">
					<dim>-1</dim>
					<dim>192</dim>
					<dim>-1</dim>
				</port>
			</output>
		</layer>
		<layer id="73" name="__module.model.enc_p/aten::transpose/Constant_1" type="Const" version="opset1">
			<data element_type="i32" shape="3" offset="245341" size="12" />
			<output>
				<port id="0" precision="I32">
					<dim>3</dim>
				</port>
			</output>
		</layer>
		<layer id="74" name="__module.model.enc_p/aten::transpose/Transpose_1" type="Transpose" version="opset1">
			<input>
				<port id="0" precision="FP32">
					<dim>-1</dim>
					<dim>192</dim>
					<dim>-1</dim>
				</port>
				<port id="1" precision="I32">
					<dim>3</dim>
				</port>
			</input>
			<output>
				<port id="2" precision="FP32" names="247,ja_bert_emb">
					<dim>-1</dim>
					<dim>-1</dim>
					<dim>192</dim>
				</port>
			</output>
		</layer>
		<layer id="75" name="__module.model.enc_p/aten::add/Add_3" type="Add" version="opset1">
			<data auto_broadcast="numpy" />
			<input>
				<port id="0" precision="FP32">
					<dim>-1</dim>
					<dim>-1</dim>
					<dim>192</dim>
				</port>
				<port id="1" precision="FP32">
					<dim>-1</dim>
					<dim>-1</dim>
					<dim>192</dim>
				</port>
			</input>
			<output>
				<port id="2" precision="FP32" names="257">
					<dim>-1</dim>
					<dim>-1</dim>
					<dim>192</dim>
				</port>
			</output>
		</layer>
		<layer id="76" name="Constant_556871" type="Const" version="opset1">
			<data element_type="f32" shape="1, 1, 1" offset="394153" size="4" />
			<output>
				<port id="0" precision="FP32">
					<dim>1</dim>
					<dim>1</dim>
					<dim>1</dim>
				</port>
			</output>
		</layer>
		<layer id="77" name="__module.model.enc_p/aten::mul/Multiply" type="Multiply" version="opset1">
			<data auto_broadcast="numpy" />
			<input>
				<port id="0" precision="FP32">
					<dim>-1</dim>
					<dim>-1</dim>
					<dim>192</dim>
				</port>
				<port id="1" precision="FP32">
					<dim>1</dim>
					<dim>1</dim>
					<dim>1</dim>
				</port>
			</input>
			<output>
				<port id="2" precision="FP32" names="258,x.3">
					<dim>-1</dim>
					<dim>-1</dim>
					<dim>192</dim>
				</port>
			</output>
		</layer>
		<layer id="78" name="__module.model.enc_p/aten::transpose/Constant_2" type="Const" version="opset1">
			<data element_type="i32" shape="3" offset="245341" size="12" />
			<output>
				<port id="0" precision="I32">
					<dim>3</dim>
				</port>
			</output>
		</layer>
		<layer id="79" name="__module.model.enc_p/aten::transpose/Transpose_2" type="Transpose" version="opset1">
			<input>
				<port id="0" precision="FP32">
					<dim>-1</dim>
					<dim>-1</dim>
					<dim>192</dim>
				</port>
				<port id="1" precision="I32">
					<dim>3</dim>
				</port>
			</input>
			<output>
				<port id="2" precision="FP32" names="259,x.5">
					<dim>-1</dim>
					<dim>192</dim>
					<dim>-1</dim>
				</port>
			</output>
		</layer>
		<layer id="80" name="ShapeOf_581427" type="ShapeOf" version="opset3">
			<data output_type="i64" />
			<input>
				<port id="0" precision="FP32">
					<dim>-1</dim>
					<dim>192</dim>
					<dim>-1</dim>
				</port>
			</input>
			<output>
				<port id="1" precision="I64">
					<dim>3</dim>
				</port>
			</output>
		</layer>
		<layer id="81" name="Constant_581428" type="Const" version="opset1">
			<data element_type="i64" shape="" offset="394157" size="8" />
			<output>
				<port id="0" precision="I64" />
			</output>
		</layer>
		<layer id="82" name="Constant_581429" type="Const" version="opset1">
			<data element_type="i64" shape="" offset="394165" size="8" />
			<output>
				<port id="0" precision="I64" />
			</output>
		</layer>
		<layer id="83" name="Gather_581430" type="Gather" version="opset8">
			<data batch_dims="0" />
			<input>
				<port id="0" precision="I64">
					<dim>3</dim>
				</port>
				<port id="1" precision="I64" />
				<port id="2" precision="I64" />
			</input>
			<output>
				<port id="3" precision="I64" names="260" />
			</output>
		</layer>
		<layer id="84" name="__module.model.enc_p/aten::arange/Constant_1" type="Const" version="opset1">
			<data element_type="i32" shape="" offset="394173" size="4" />
			<output>
				<port id="0" precision="I32" />
			</output>
		</layer>
		<layer id="85" name="__module.model.enc_p/aten::arange/Range" type="Range" version="opset4">
			<data output_type="i64" />
			<input>
				<port id="0" precision="I32" />
				<port id="1" precision="I64" />
				<port id="2" precision="I32" />
			</input>
			<output>
				<port id="3" precision="I64" names="261,x.7">
					<dim>-1</dim>
				</port>
			</output>
		</layer>
		<layer id="86" name="222" type="Const" version="opset1">
			<data element_type="i64" shape="" offset="394165" size="8" />
			<output>
				<port id="0" precision="I64" names="222" />
			</output>
		</layer>
		<layer id="87" name="__module.model.enc_p/aten::unsqueeze/Unsqueeze" type="Unsqueeze" version="opset1">
			<input>
				<port id="0" precision="I64">
					<dim>-1</dim>
				</port>
				<port id="1" precision="I64" />
			</input>
			<output>
				<port id="2" precision="I64" names="262">
					<dim>1</dim>
					<dim>-1</dim>
				</port>
			</output>
		</layer>
		<layer id="88" name="221" type="Const" version="opset1">
			<data element_type="i64" shape="" offset="394177" size="8" />
			<output>
				<port id="0" precision="I64" names="221" />
			</output>
		</layer>
		<layer id="89" name="__module.model.enc_p/aten::unsqueeze/Unsqueeze_1" type="Unsqueeze" version="opset1">
			<input>
				<port id="0" precision="I64">
					<dim>-1</dim>
				</port>
				<port id="1" precision="I64" />
			</input>
			<output>
				<port id="2" precision="I64" names="263">
					<dim>-1</dim>
					<dim>1</dim>
				</port>
			</output>
		</layer>
		<layer id="90" name="__module.model.enc_p/aten::lt/Less" type="Less" version="opset1">
			<data auto_broadcast="numpy" />
			<input>
				<port id="0" precision="I64">
					<dim>1</dim>
					<dim>-1</dim>
				</port>
				<port id="1" precision="I64">
					<dim>-1</dim>
					<dim>1</dim>
				</port>
			</input>
			<output>
				<port id="2" precision="BOOL" names="264">
					<dim>-1</dim>
					<dim>-1</dim>
				</port>
			</output>
		</layer>
		<layer id="91" name="__module.model.enc_p/aten::unsqueeze/Unsqueeze_2" type="Unsqueeze" version="opset1">
			<input>
				<port id="0" precision="BOOL">
					<dim>-1</dim>
					<dim>-1</dim>
				</port>
				<port id="1" precision="I64" />
			</input>
			<output>
				<port id="2" precision="BOOL" names="265">
					<dim>-1</dim>
					<dim>1</dim>
					<dim>-1</dim>
				</port>
			</output>
		</layer>
		<layer id="92" name="__module.model.enc_p/aten::to/Convert" type="Convert" version="opset1">
			<data destination_type="f32" />
			<input>
				<port id="0" precision="BOOL">
					<dim>-1</dim>
					<dim>1</dim>
					<dim>-1</dim>
				</port>
			</input>
			<output>
				<port id="1" precision="FP32" names="266,29,x_mask">
					<dim>-1</dim>
					<dim>1</dim>
					<dim>-1</dim>
				</port>
			</output>
		</layer>
		<layer id="93" name="77" type="Const" version="opset1">
			<data element_type="i64" shape="" offset="394157" size="8" />
			<output>
				<port id="0" precision="I64" names="77" />
			</output>
		</layer>
		<layer id="94" name="aten::unsqueeze/Unsqueeze" type="Unsqueeze" version="opset1">
			<input>
				<port id="0" precision="FP32">
					<dim>-1</dim>
					<dim>1</dim>
					<dim>-1</dim>
				</port>
				<port id="1" precision="I64" />
			</input>
			<output>
				<port id="2" precision="FP32" names="317,78">
					<dim>-1</dim>
					<dim>1</dim>
					<dim>1</dim>
					<dim>-1</dim>
				</port>
			</output>
		</layer>
		<layer id="95" name="aten::arange/Constant_1" type="Const" version="opset1">
			<data element_type="i32" shape="" offset="0" size="4" />
			<output>
				<port id="0" precision="I32" />
			</output>
		</layer>
		<layer id="96" name="__module.model.enc_p/aten::mul/Multiply_1" type="Multiply" version="opset1">
			<data auto_broadcast="numpy" />
			<input>
				<port id="0" precision="FP32">
					<dim>-1</dim>
					<dim>192</dim>
					<dim>-1</dim>
				</port>
				<port id="1" precision="FP32">
					<dim>-1</dim>
					<dim>1</dim>
					<dim>-1</dim>
				</port>
			</input>
			<output>
				<port id="2" precision="FP32" names="267,x.9">
					<dim>-1</dim>
					<dim>192</dim>
					<dim>-1</dim>
				</port>
			</output>
		</layer>
		<layer id="97" name="__module.model.enc_p.encoder/aten::mul/Multiply" type="Multiply" version="opset1">
			<data auto_broadcast="numpy" />
			<input>
				<port id="0" precision="FP32">
					<dim>-1</dim>
					<dim>192</dim>
					<dim>-1</dim>
				</port>
				<port id="1" precision="FP32">
					<dim>-1</dim>
					<dim>1</dim>
					<dim>-1</dim>
				</port>
			</input>
			<output>
				<port id="2" precision="FP32" names="320,input.1">
					<dim>-1</dim>
					<dim>192</dim>
					<dim>-1</dim>
				</port>
			</output>
		</layer>
		<layer id="98" name="219" type="Const" version="opset1">
			<data element_type="i64" shape="" offset="394185" size="8" />
			<output>
				<port id="0" precision="I64" names="219" />
			</output>
		</layer>
		<layer id="99" name="__module.model.enc_p.encoder/aten::unsqueeze/Unsqueeze_1" type="Unsqueeze" version="opset1">
			<input>
				<port id="0" precision="FP32">
					<dim>-1</dim>
					<dim>1</dim>
					<dim>-1</dim>
				</port>
				<port id="1" precision="I64" />
			</input>
			<output>
				<port id="2" precision="FP32" names="318">
					<dim>-1</dim>
					<dim>1</dim>
					<dim>-1</dim>
					<dim>1</dim>
				</port>
			</output>
		</layer>
		<layer id="100" name="__module.model.enc_p.encoder/aten::mul/Multiply_1" type="Multiply" version="opset1">
			<data auto_broadcast="numpy" />
			<input>
				<port id="0" precision="FP32">
					<dim>-1</dim>
					<dim>1</dim>
					<dim>1</dim>
					<dim>-1</dim>
				</port>
				<port id="1" precision="FP32">
					<dim>-1</dim>
					<dim>1</dim>
					<dim>-1</dim>
					<dim>1</dim>
				</port>
			</input>
			<output>
				<port id="2" precision="FP32" names="319,mask.1">
					<dim>-1</dim>
					<dim>1</dim>
					<dim>-1</dim>
					<dim>-1</dim>
				</port>
			</output>
		</layer>
		<layer id="101" name="Constant_556872" type="Const" version="opset1">
			<data element_type="f32" shape="1, 1, 1, 1" offset="0" size="4" />
			<output>
				<port id="0" precision="FP32">
					<dim>1</dim>
					<dim>1</dim>
					<dim>1</dim>
					<dim>1</dim>
				</port>
			</output>
		</layer>
		<layer id="102" name="__module.model.enc_p.encoder.attn_layers.0/aten::eq/Equal" type="Equal" version="opset1">
			<data auto_broadcast="numpy" />
			<input>
				<port id="0" precision="FP32">
					<dim>-1</dim>
					<dim>1</dim>
					<dim>-1</dim>
					<dim>-1</dim>
				</port>
				<port id="1" precision="FP32">
					<dim>1</dim>
					<dim>1</dim>
					<dim>1</dim>
					<dim>1</dim>
				</port>
			</input>
			<output>
				<port id="2" precision="BOOL" names="1152,1336,409,593,784,968">
					<dim>-1</dim>
					<dim>1</dim>
					<dim>-1</dim>
					<dim>-1</dim>
				</port>
			</output>
		</layer>
		<layer id="103" name="__module.model.enc_p.encoder.attn_layers.0/aten::masked_fill/ConvertLike" type="Const" version="opset1">
			<data element_type="f32" shape="" offset="394193" size="4" />
			<output>
				<port id="0" precision="FP32" />
			</output>
		</layer>
		<layer id="104" name="self.model.enc_p.encoder.attn_layers.0.conv_q.weight" type="Const" version="opset1">
			<data element_type="u8" shape="192, 192, 1" offset="394197" size="36864" />
			<output>
				<port id="0" precision="U8">
					<dim>192</dim>
					<dim>192</dim>
					<dim>1</dim>
				</port>
			</output>
		</layer>
		<layer id="105" name="Convert_999639" type="Convert" version="opset1">
			<data destination_type="f16" />
			<input>
				<port id="0" precision="U8">
					<dim>192</dim>
					<dim>192</dim>
					<dim>1</dim>
				</port>
			</input>
			<output>
				<port id="1" precision="FP16">
					<dim>192</dim>
					<dim>192</dim>
					<dim>1</dim>
				</port>
			</output>
		</layer>
		<layer id="106" name="self.model.enc_p.encoder.attn_layers.0.conv_q.weight/zero_point" type="Const" version="opset1">
			<data element_type="u8" shape="192, 1, 1" offset="431061" size="192" />
			<output>
				<port id="0" precision="U8">
					<dim>192</dim>
					<dim>1</dim>
					<dim>1</dim>
				</port>
			</output>
		</layer>
		<layer id="107" name="Convert_999642" type="Convert" version="opset1">
			<data destination_type="f16" />
			<input>
				<port id="0" precision="U8">
					<dim>192</dim>
					<dim>1</dim>
					<dim>1</dim>
				</port>
			</input>
			<output>
				<port id="1" precision="FP16">
					<dim>192</dim>
					<dim>1</dim>
					<dim>1</dim>
				</port>
			</output>
		</layer>
		<layer id="108" name="self.model.enc_p.encoder.attn_layers.0.conv_q.weight/zero_point/subtract" type="Subtract" version="opset1">
			<data auto_broadcast="numpy" />
			<input>
				<port id="0" precision="FP16">
					<dim>192</dim>
					<dim>192</dim>
					<dim>1</dim>
				</port>
				<port id="1" precision="FP16">
					<dim>192</dim>
					<dim>1</dim>
					<dim>1</dim>
				</port>
			</input>
			<output>
				<port id="2" precision="FP16">
					<dim>192</dim>
					<dim>192</dim>
					<dim>1</dim>
				</port>
			</output>
		</layer>
		<layer id="109" name="self.model.enc_p.encoder.attn_layers.0.conv_q.weight/scale" type="Const" version="opset1">
			<data element_type="f16" shape="192, 1, 1" offset="431253" size="384" />
			<output>
				<port id="0" precision="FP16">
					<dim>192</dim>
					<dim>1</dim>
					<dim>1</dim>
				</port>
			</output>
		</layer>
		<layer id="110" name="self.model.enc_p.encoder.attn_layers.0.conv_q.weight/fq_weights_1" type="Multiply" version="opset1">
			<data auto_broadcast="numpy" />
			<input>
				<port id="0" precision="FP16">
					<dim>192</dim>
					<dim>192</dim>
					<dim>1</dim>
				</port>
				<port id="1" precision="FP16">
					<dim>192</dim>
					<dim>1</dim>
					<dim>1</dim>
				</port>
			</input>
			<output>
				<port id="2" precision="FP16">
					<dim>192</dim>
					<dim>192</dim>
					<dim>1</dim>
				</port>
			</output>
		</layer>
		<layer id="111" name="self.model.enc_p.encoder.attn_layers.0.conv_q.weight/fq_weights_1/convert" type="Convert" version="opset1">
			<data destination_type="f32" />
			<input>
				<port id="0" precision="FP16">
					<dim>192</dim>
					<dim>192</dim>
					<dim>1</dim>
				</port>
			</input>
			<output>
				<port id="1" precision="FP32">
					<dim>192</dim>
					<dim>192</dim>
					<dim>1</dim>
				</port>
			</output>
		</layer>
		<layer id="112" name="__module.model.enc_p.encoder.attn_layers.0.conv_q/aten::_convolution/Convolution" type="Convolution" version="opset1">
			<data strides="1" dilations="1" pads_begin="0" pads_end="0" auto_pad="explicit" />
			<input>
				<port id="0" precision="FP32">
					<dim>-1</dim>
					<dim>192</dim>
					<dim>-1</dim>
				</port>
				<port id="1" precision="FP32">
					<dim>192</dim>
					<dim>192</dim>
					<dim>1</dim>
				</port>
			</input>
			<output>
				<port id="2" precision="FP32">
					<dim>-1</dim>
					<dim>192</dim>
					<dim>-1</dim>
				</port>
			</output>
		</layer>
		<layer id="113" name="__module.model.enc_p.encoder.attn_layers.0.conv_q/aten::_convolution/Reshape" type="Const" version="opset1">
			<data element_type="f32" shape="1, 192, 1" offset="431637" size="768" />
			<output>
				<port id="0" precision="FP32">
					<dim>1</dim>
					<dim>192</dim>
					<dim>1</dim>
				</port>
			</output>
		</layer>
		<layer id="114" name="__module.model.enc_p.encoder.attn_layers.0.conv_q/aten::_convolution/Add" type="Add" version="opset1">
			<data auto_broadcast="numpy" />
			<input>
				<port id="0" precision="FP32">
					<dim>-1</dim>
					<dim>192</dim>
					<dim>-1</dim>
				</port>
				<port id="1" precision="FP32">
					<dim>1</dim>
					<dim>192</dim>
					<dim>1</dim>
				</port>
			</input>
			<output>
				<port id="2" precision="FP32" names="333,query.1">
					<dim>-1</dim>
					<dim>192</dim>
					<dim>-1</dim>
				</port>
			</output>
		</layer>
		<layer id="115" name="Constant_582660" type="Const" version="opset1">
			<data element_type="i64" shape="4" offset="432405" size="32" />
			<output>
				<port id="0" precision="I64">
					<dim>4</dim>
				</port>
			</output>
		</layer>
		<layer id="116" name="__module.model.enc_p.encoder.attn_layers.0/aten::view/Reshape" type="Reshape" version="opset1">
			<data special_zero="true" />
			<input>
				<port id="0" precision="FP32">
					<dim>-1</dim>
					<dim>192</dim>
					<dim>-1</dim>
				</port>
				<port id="1" precision="I64">
					<dim>4</dim>
				</port>
			</input>
			<output>
				<port id="2" precision="FP32" names="354">
					<dim>-1</dim>
					<dim>2</dim>
					<dim>96</dim>
					<dim>-1</dim>
				</port>
			</output>
		</layer>
		<layer id="117" name="__module.model.enc_p.encoder.attn_layers.0/aten::transpose/Constant" type="Const" version="opset1">
			<data element_type="i32" shape="4" offset="432437" size="16" />
			<output>
				<port id="0" precision="I32">
					<dim>4</dim>
				</port>
			</output>
		</layer>
		<layer id="118" name="__module.model.enc_p.encoder.attn_layers.0/aten::transpose/Transpose" type="Transpose" version="opset1">
			<input>
				<port id="0" precision="FP32">
					<dim>-1</dim>
					<dim>2</dim>
					<dim>96</dim>
					<dim>-1</dim>
				</port>
				<port id="1" precision="I32">
					<dim>4</dim>
				</port>
			</input>
			<output>
				<port id="2" precision="FP32" names="355,query.3">
					<dim>-1</dim>
					<dim>2</dim>
					<dim>-1</dim>
					<dim>96</dim>
				</port>
			</output>
		</layer>
		<layer id="119" name="Constant_556873" type="Const" version="opset1">
			<data element_type="f32" shape="1, 1, 1, 1" offset="432453" size="4" />
			<output>
				<port id="0" precision="FP32">
					<dim>1</dim>
					<dim>1</dim>
					<dim>1</dim>
					<dim>1</dim>
				</port>
			</output>
		</layer>
		<layer id="120" name="__module.model.enc_p.encoder.attn_layers.0/aten::div/Divide" type="Divide" version="opset1">
			<data auto_broadcast="numpy" m_pythondiv="true" />
			<input>
				<port id="0" precision="FP32">
					<dim>-1</dim>
					<dim>2</dim>
					<dim>-1</dim>
					<dim>96</dim>
				</port>
				<port id="1" precision="FP32">
					<dim>1</dim>
					<dim>1</dim>
					<dim>1</dim>
					<dim>1</dim>
				</port>
			</input>
			<output>
				<port id="2" precision="FP32" names="362,376,x.11">
					<dim>-1</dim>
					<dim>2</dim>
					<dim>-1</dim>
					<dim>96</dim>
				</port>
			</output>
		</layer>
		<layer id="121" name="self.model.enc_p.encoder.attn_layers.0.conv_k.weight" type="Const" version="opset1">
			<data element_type="u8" shape="192, 192, 1" offset="432457" size="36864" />
			<output>
				<port id="0" precision="U8">
					<dim>192</dim>
					<dim>192</dim>
					<dim>1</dim>
				</port>
			</output>
		</layer>
		<layer id="122" name="Convert_1003625" type="Convert" version="opset1">
			<data destination_type="f16" />
			<input>
				<port id="0" precision="U8">
					<dim>192</dim>
					<dim>192</dim>
					<dim>1</dim>
				</port>
			</input>
			<output>
				<port id="1" precision="FP16">
					<dim>192</dim>
					<dim>192</dim>
					<dim>1</dim>
				</port>
			</output>
		</layer>
		<layer id="123" name="self.model.enc_p.encoder.attn_layers.0.conv_k.weight/zero_point" type="Const" version="opset1">
			<data element_type="u8" shape="192, 1, 1" offset="469321" size="192" />
			<output>
				<port id="0" precision="U8">
					<dim>192</dim>
					<dim>1</dim>
					<dim>1</dim>
				</port>
			</output>
		</layer>
		<layer id="124" name="Convert_1003628" type="Convert" version="opset1">
			<data destination_type="f16" />
			<input>
				<port id="0" precision="U8">
					<dim>192</dim>
					<dim>1</dim>
					<dim>1</dim>
				</port>
			</input>
			<output>
				<port id="1" precision="FP16">
					<dim>192</dim>
					<dim>1</dim>
					<dim>1</dim>
				</port>
			</output>
		</layer>
		<layer id="125" name="self.model.enc_p.encoder.attn_layers.0.conv_k.weight/zero_point/subtract" type="Subtract" version="opset1">
			<data auto_broadcast="numpy" />
			<input>
				<port id="0" precision="FP16">
					<dim>192</dim>
					<dim>192</dim>
					<dim>1</dim>
				</port>
				<port id="1" precision="FP16">
					<dim>192</dim>
					<dim>1</dim>
					<dim>1</dim>
				</port>
			</input>
			<output>
				<port id="2" precision="FP16">
					<dim>192</dim>
					<dim>192</dim>
					<dim>1</dim>
				</port>
			</output>
		</layer>
		<layer id="126" name="self.model.enc_p.encoder.attn_layers.0.conv_k.weight/scale" type="Const" version="opset1">
			<data element_type="f16" shape="192, 1, 1" offset="469513" size="384" />
			<output>
				<port id="0" precision="FP16">
					<dim>192</dim>
					<dim>1</dim>
					<dim>1</dim>
				</port>
			</output>
		</layer>
		<layer id="127" name="self.model.enc_p.encoder.attn_layers.0.conv_k.weight/fq_weights_1" type="Multiply" version="opset1">
			<data auto_broadcast="numpy" />
			<input>
				<port id="0" precision="FP16">
					<dim>192</dim>
					<dim>192</dim>
					<dim>1</dim>
				</port>
				<port id="1" precision="FP16">
					<dim>192</dim>
					<dim>1</dim>
					<dim>1</dim>
				</port>
			</input>
			<output>
				<port id="2" precision="FP16">
					<dim>192</dim>
					<dim>192</dim>
					<dim>1</dim>
				</port>
			</output>
		</layer>
		<layer id="128" name="self.model.enc_p.encoder.attn_layers.0.conv_k.weight/fq_weights_1/convert" type="Convert" version="opset1">
			<data destination_type="f32" />
			<input>
				<port id="0" precision="FP16">
					<dim>192</dim>
					<dim>192</dim>
					<dim>1</dim>
				</port>
			</input>
			<output>
				<port id="1" precision="FP32">
					<dim>192</dim>
					<dim>192</dim>
					<dim>1</dim>
				</port>
			</output>
		</layer>
		<layer id="129" name="__module.model.enc_p.encoder.attn_layers.0.conv_k/aten::_convolution/Convolution" type="Convolution" version="opset1">
			<data strides="1" dilations="1" pads_begin="0" pads_end="0" auto_pad="explicit" />
			<input>
				<port id="0" precision="FP32">
					<dim>-1</dim>
					<dim>192</dim>
					<dim>-1</dim>
				</port>
				<port id="1" precision="FP32">
					<dim>192</dim>
					<dim>192</dim>
					<dim>1</dim>
				</port>
			</input>
			<output>
				<port id="2" precision="FP32">
					<dim>-1</dim>
					<dim>192</dim>
					<dim>-1</dim>
				</port>
			</output>
		</layer>
		<layer id="130" name="__module.model.enc_p.encoder.attn_layers.0.conv_k/aten::_convolution/Reshape" type="Const" version="opset1">
			<data element_type="f32" shape="1, 192, 1" offset="469897" size="768" />
			<output>
				<port id="0" precision="FP32">
					<dim>1</dim>
					<dim>192</dim>
					<dim>1</dim>
				</port>
			</output>
		</layer>
		<layer id="131" name="__module.model.enc_p.encoder.attn_layers.0.conv_k/aten::_convolution/Add" type="Add" version="opset1">
			<data auto_broadcast="numpy" />
			<input>
				<port id="0" precision="FP32">
					<dim>-1</dim>
					<dim>192</dim>
					<dim>-1</dim>
				</port>
				<port id="1" precision="FP32">
					<dim>1</dim>
					<dim>192</dim>
					<dim>1</dim>
				</port>
			</input>
			<output>
				<port id="2" precision="FP32" names="340,key.1">
					<dim>-1</dim>
					<dim>192</dim>
					<dim>-1</dim>
				</port>
			</output>
		</layer>
		<layer id="132" name="Constant_582661" type="Const" version="opset1">
			<data element_type="i64" shape="4" offset="432405" size="32" />
			<output>
				<port id="0" precision="I64">
					<dim>4</dim>
				</port>
			</output>
		</layer>
		<layer id="133" name="__module.model.enc_p.encoder.attn_layers.0/aten::view/Reshape_1" type="Reshape" version="opset1">
			<data special_zero="true" />
			<input>
				<port id="0" precision="FP32">
					<dim>-1</dim>
					<dim>192</dim>
					<dim>-1</dim>
				</port>
				<port id="1" precision="I64">
					<dim>4</dim>
				</port>
			</input>
			<output>
				<port id="2" precision="FP32" names="357">
					<dim>-1</dim>
					<dim>2</dim>
					<dim>96</dim>
					<dim>-1</dim>
				</port>
			</output>
		</layer>
		<layer id="134" name="__module.model.enc_p.encoder.attn_layers.0/aten::matmul/MatMul" type="MatMul" version="opset1">
			<data transpose_a="false" transpose_b="false" />
			<input>
				<port id="0" precision="FP32">
					<dim>-1</dim>
					<dim>2</dim>
					<dim>-1</dim>
					<dim>96</dim>
				</port>
				<port id="1" precision="FP32">
					<dim>-1</dim>
					<dim>2</dim>
					<dim>96</dim>
					<dim>-1</dim>
				</port>
			</input>
			<output>
				<port id="2" precision="FP32" names="364,scores.1">
					<dim>-1</dim>
					<dim>2</dim>
					<dim>-1</dim>
					<dim>-1</dim>
				</port>
			</output>
		</layer>
		<layer id="135" name="self.model.enc_p.encoder.attn_layers.0.emb_rel_k" type="Const" version="opset1">
			<data element_type="f32" shape="1, 9, 96" offset="470665" size="3456" />
			<output>
				<port id="0" precision="FP32" names="self.model.enc_p.encoder.attn_layers.0.emb_rel_k">
					<dim>1</dim>
					<dim>9</dim>
					<dim>96</dim>
				</port>
			</output>
		</layer>
		<layer id="136" name="Unsqueeze_143017" type="Const" version="opset1">
			<data element_type="i64" shape="1" offset="394165" size="8" />
			<output>
				<port id="0" precision="I64">
					<dim>1</dim>
				</port>
			</output>
		</layer>
		<layer id="137" name="ShapeOf_581445" type="ShapeOf" version="opset3">
			<data output_type="i64" />
			<input>
				<port id="0" precision="FP32">
					<dim>-1</dim>
					<dim>192</dim>
					<dim>-1</dim>
				</port>
			</input>
			<output>
				<port id="1" precision="I64">
					<dim>3</dim>
				</port>
			</output>
		</layer>
		<layer id="138" name="Constant_581446" type="Const" version="opset1">
			<data element_type="i64" shape="" offset="394157" size="8" />
			<output>
				<port id="0" precision="I64" />
			</output>
		</layer>
		<layer id="139" name="Constant_581447" type="Const" version="opset1">
			<data element_type="i64" shape="" offset="394165" size="8" />
			<output>
				<port id="0" precision="I64" />
			</output>
		</layer>
		<layer id="140" name="Gather_581448" type="Gather" version="opset8">
			<data batch_dims="0" />
			<input>
				<port id="0" precision="I64">
					<dim>3</dim>
				</port>
				<port id="1" precision="I64" />
				<port id="2" precision="I64" />
			</input>
			<output>
				<port id="3" precision="I64" names="350" />
			</output>
		</layer>
		<layer id="141" name="Constant_581449" type="Const" version="opset1">
			<data element_type="i64" shape="1" offset="394177" size="8" />
			<output>
				<port id="0" precision="I64">
					<dim>1</dim>
				</port>
			</output>
		</layer>
		<layer id="142" name="Reshape_581450" type="Reshape" version="opset1">
			<data special_zero="false" />
			<input>
				<port id="0" precision="I64" />
				<port id="1" precision="I64">
					<dim>1</dim>
				</port>
			</input>
			<output>
				<port id="2" precision="I64">
					<dim>1</dim>
				</port>
			</output>
		</layer>
		<layer id="143" name="Constant_554677" type="Const" version="opset1">
			<data element_type="i64" shape="1" offset="474121" size="8" />
			<output>
				<port id="0" precision="I64">
					<dim>1</dim>
				</port>
			</output>
		</layer>
		<layer id="144" name="__module.model.enc_p.encoder.attn_layers.0/aten::sub/Subtract" type="Add" version="opset1">
			<data auto_broadcast="numpy" />
			<input>
				<port id="0" precision="I64">
					<dim>1</dim>
				</port>
				<port id="1" precision="I64">
					<dim>1</dim>
				</port>
			</input>
			<output>
				<port id="2" precision="I64" names="365,366,367,439,440,441,pad_length.1,pad_length.3">
					<dim>1</dim>
				</port>
			</output>
		</layer>
		<layer id="145" name="Concat_143023" type="Concat" version="opset1">
			<data axis="0" />
			<input>
				<port id="0" precision="I64">
					<dim>1</dim>
				</port>
				<port id="1" precision="I64">
					<dim>1</dim>
				</port>
				<port id="2" precision="I64">
					<dim>1</dim>
				</port>
				<port id="3" precision="I64">
					<dim>1</dim>
				</port>
				<port id="4" precision="I64">
					<dim>1</dim>
				</port>
				<port id="5" precision="I64">
					<dim>1</dim>
				</port>
			</input>
			<output>
				<port id="6" precision="I64">
					<dim>6</dim>
				</port>
			</output>
		</layer>
		<layer id="146" name="__module.model.enc_p.encoder.attn_layers.0/aten::pad/Range" type="Const" version="opset1">
			<data element_type="i32" shape="3" offset="474129" size="12" />
			<output>
				<port id="0" precision="I32">
					<dim>3</dim>
				</port>
			</output>
		</layer>
		<layer id="147" name="Constant_143032" type="Const" version="opset1">
			<data element_type="i32" shape="" offset="0" size="4" />
			<output>
				<port id="0" precision="I32" />
			</output>
		</layer>
		<layer id="148" name="__module.model.enc_p.encoder.attn_layers.0/aten::pad/Gather" type="Gather" version="opset8">
			<data batch_dims="0" />
			<input>
				<port id="0" precision="I64">
					<dim>6</dim>
				</port>
				<port id="1" precision="I32">
					<dim>3</dim>
				</port>
				<port id="2" precision="I32" />
			</input>
			<output>
				<port id="3" precision="I64">
					<dim>3</dim>
				</port>
			</output>
		</layer>
		<layer id="149" name="__module.model.enc_p.encoder.attn_layers.0/aten::pad/Range_4" type="Const" version="opset1">
			<data element_type="i32" shape="3" offset="474141" size="12" />
			<output>
				<port id="0" precision="I32">
					<dim>3</dim>
				</port>
			</output>
		</layer>
		<layer id="150" name="Constant_143050" type="Const" version="opset1">
			<data element_type="i32" shape="" offset="0" size="4" />
			<output>
				<port id="0" precision="I32" />
			</output>
		</layer>
		<layer id="151" name="__module.model.enc_p.encoder.attn_layers.0/aten::pad/Gather_5" type="Gather" version="opset8">
			<data batch_dims="0" />
			<input>
				<port id="0" precision="I64">
					<dim>6</dim>
				</port>
				<port id="1" precision="I32">
					<dim>3</dim>
				</port>
				<port id="2" precision="I32" />
			</input>
			<output>
				<port id="3" precision="I64">
					<dim>3</dim>
				</port>
			</output>
		</layer>
		<layer id="152" name="__module.model.enc_p.encoder.attn_layers.0/aten::pad/ConvertLike_11" type="Const" version="opset1">
			<data element_type="f32" shape="" offset="0" size="4" />
			<output>
				<port id="0" precision="FP32" />
			</output>
		</layer>
		<layer id="153" name="__module.model.enc_p.encoder.attn_layers.0/aten::pad" type="Pad" version="opset1">
			<data pad_mode="constant" />
			<input>
				<port id="0" precision="FP32">
					<dim>1</dim>
					<dim>9</dim>
					<dim>96</dim>
				</port>
				<port id="1" precision="I64">
					<dim>3</dim>
				</port>
				<port id="2" precision="I64">
					<dim>3</dim>
				</port>
				<port id="3" precision="FP32" />
			</input>
			<output>
				<port id="4" precision="FP32" names="373,374,padded_relative_embeddings.1">
					<dim>1</dim>
					<dim>-1</dim>
					<dim>96</dim>
				</port>
			</output>
		</layer>
		<layer id="154" name="Constant_777" type="Const" version="opset1">
			<data element_type="i64" shape="1" offset="394165" size="8" />
			<output>
				<port id="0" precision="I64">
					<dim>1</dim>
				</port>
			</output>
		</layer>
		<layer id="155" name="Constant_40" type="Const" version="opset1">
			<data element_type="i64" shape="" offset="394157" size="8" />
			<output>
				<port id="0" precision="I64" names="206" />
			</output>
		</layer>
		<layer id="156" name="__module.model.enc_p.encoder.attn_layers.0/aten::mul/Multiply" type="Multiply" version="opset1">
			<data auto_broadcast="numpy" />
			<input>
				<port id="0" precision="I64" />
				<port id="1" precision="I64" />
			</input>
			<output>
				<port id="2" precision="I64" names="368,369,442,443" />
			</output>
		</layer>
		<layer id="157" name="Constant_554681" type="Const" version="opset1">
			<data element_type="i64" shape="" offset="394185" size="8" />
			<output>
				<port id="0" precision="I64" />
			</output>
		</layer>
		<layer id="158" name="__module.model.enc_p.encoder.attn_layers.0/aten::sub/Subtract_1" type="Add" version="opset1">
			<data auto_broadcast="numpy" />
			<input>
				<port id="0" precision="I64" />
				<port id="1" precision="I64" />
			</input>
			<output>
				<port id="2" precision="I64" names="370,371,444,445,slice_end_position.1,slice_end_position.3" />
			</output>
		</layer>
		<layer id="159" name="Constant_317192" type="Const" version="opset1">
			<data element_type="i64" shape="1" offset="394185" size="8" />
			<output>
				<port id="0" precision="I64">
					<dim>1</dim>
				</port>
			</output>
		</layer>
		<layer id="160" name="__module.model.enc_p.encoder.attn_layers.0/aten::slice/Reshape" type="Reshape" version="opset1">
			<data special_zero="false" />
			<input>
				<port id="0" precision="I64" />
				<port id="1" precision="I64">
					<dim>1</dim>
				</port>
			</input>
			<output>
				<port id="2" precision="I64">
					<dim>1</dim>
				</port>
			</output>
		</layer>
		<layer id="161" name="Constant_842" type="Const" version="opset1">
			<data element_type="i64" shape="1" offset="394177" size="8" />
			<output>
				<port id="0" precision="I64">
					<dim>1</dim>
				</port>
			</output>
		</layer>
		<layer id="162" name="Constant_775" type="Const" version="opset1">
			<data element_type="i64" shape="1" offset="394177" size="8" />
			<output>
				<port id="0" precision="I64">
					<dim>1</dim>
				</port>
			</output>
		</layer>
		<layer id="163" name="__module.model.enc_p.encoder.attn_layers.0/aten::slice/Slice_1" type="Slice" version="opset8">
			<input>
				<port id="0" precision="FP32">
					<dim>1</dim>
					<dim>-1</dim>
					<dim>96</dim>
				</port>
				<port id="1" precision="I64">
					<dim>1</dim>
				</port>
				<port id="2" precision="I64">
					<dim>1</dim>
				</port>
				<port id="3" precision="I64">
					<dim>1</dim>
				</port>
				<port id="4" precision="I64">
					<dim>1</dim>
				</port>
			</input>
			<output>
				<port id="5" precision="FP32" names="375,y.1">
					<dim>1</dim>
					<dim>-1</dim>
					<dim>96</dim>
				</port>
			</output>
		</layer>
		<layer id="164" name="__module.model.enc_p.encoder.attn_layers.0/aten::unsqueeze/Unsqueeze" type="Unsqueeze" version="opset1">
			<input>
				<port id="0" precision="FP32">
					<dim>1</dim>
					<dim>-1</dim>
					<dim>96</dim>
				</port>
				<port id="1" precision="I64" />
			</input>
			<output>
				<port id="2" precision="FP32" names="377">
					<dim>1</dim>
					<dim>1</dim>
					<dim>-1</dim>
					<dim>96</dim>
				</port>
			</output>
		</layer>
		<layer id="165" name="__module.model.enc_p.encoder.attn_layers.0/aten::matmul/MatMul_1" type="MatMul" version="opset1">
			<data transpose_a="false" transpose_b="true" />
			<input>
				<port id="0" precision="FP32">
					<dim>-1</dim>
					<dim>2</dim>
					<dim>-1</dim>
					<dim>96</dim>
				</port>
				<port id="1" precision="FP32">
					<dim>1</dim>
					<dim>1</dim>
					<dim>-1</dim>
					<dim>96</dim>
				</port>
			</input>
			<output>
				<port id="2" precision="FP32" names="379,x.13">
					<dim>-1</dim>
					<dim>2</dim>
					<dim>-1</dim>
					<dim>-1</dim>
				</port>
			</output>
		</layer>
		<layer id="166" name="__module.model.enc_p.encoder.attn_layers.0/aten::pad/Concat_1" type="Const" version="opset1">
			<data element_type="i32" shape="4" offset="474153" size="16" />
			<output>
				<port id="0" precision="I32">
					<dim>4</dim>
				</port>
			</output>
		</layer>
		<layer id="167" name="__module.model.enc_p.encoder.attn_layers.0/aten::pad/Concat_2" type="Const" version="opset1">
			<data element_type="i32" shape="4" offset="474169" size="16" />
			<output>
				<port id="0" precision="I32">
					<dim>4</dim>
				</port>
			</output>
		</layer>
		<layer id="168" name="__module.model.enc_p.encoder.attn_layers.0/aten::pad/ConvertLike_1" type="Const" version="opset1">
			<data element_type="f32" shape="" offset="0" size="4" />
			<output>
				<port id="0" precision="FP32" />
			</output>
		</layer>
		<layer id="169" name="__module.model.enc_p.encoder.attn_layers.0/aten::pad/Pad" type="Pad" version="opset1">
			<data pad_mode="constant" />
			<input>
				<port id="0" precision="FP32">
					<dim>-1</dim>
					<dim>2</dim>
					<dim>-1</dim>
					<dim>-1</dim>
				</port>
				<port id="1" precision="I32">
					<dim>4</dim>
				</port>
				<port id="2" precision="I32">
					<dim>4</dim>
				</port>
				<port id="3" precision="FP32" />
			</input>
			<output>
				<port id="4" precision="FP32" names="385,x.15">
					<dim>-1</dim>
					<dim>2</dim>
					<dim>-1</dim>
					<dim>-1</dim>
				</port>
			</output>
		</layer>
		<layer id="170" name="Constant_582662" type="Const" version="opset1">
			<data element_type="i64" shape="3" offset="474185" size="24" />
			<output>
				<port id="0" precision="I64">
					<dim>3</dim>
				</port>
			</output>
		</layer>
		<layer id="171" name="__module.model.enc_p.encoder.attn_layers.0/aten::view/Reshape_2" type="Reshape" version="opset1">
			<data special_zero="true" />
			<input>
				<port id="0" precision="FP32">
					<dim>-1</dim>
					<dim>2</dim>
					<dim>-1</dim>
					<dim>-1</dim>
				</port>
				<port id="1" precision="I64">
					<dim>3</dim>
				</port>
			</input>
			<output>
				<port id="2" precision="FP32" names="390,input.5">
					<dim>-1</dim>
					<dim>2</dim>
					<dim>-1</dim>
				</port>
			</output>
		</layer>
		<layer id="172" name="ShapeOf_581439" type="ShapeOf" version="opset3">
			<data output_type="i64" />
			<input>
				<port id="0" precision="FP32">
					<dim>-1</dim>
					<dim>192</dim>
					<dim>-1</dim>
				</port>
			</input>
			<output>
				<port id="1" precision="I64">
					<dim>3</dim>
				</port>
			</output>
		</layer>
		<layer id="173" name="Constant_581440" type="Const" version="opset1">
			<data element_type="i64" shape="1" offset="394157" size="8" />
			<output>
				<port id="0" precision="I64">
					<dim>1</dim>
				</port>
			</output>
		</layer>
		<layer id="174" name="Constant_581441" type="Const" version="opset1">
			<data element_type="i64" shape="" offset="394165" size="8" />
			<output>
				<port id="0" precision="I64" />
			</output>
		</layer>
		<layer id="175" name="Gather_581442" type="Gather" version="opset8">
			<data batch_dims="0" />
			<input>
				<port id="0" precision="I64">
					<dim>3</dim>
				</port>
				<port id="1" precision="I64">
					<dim>1</dim>
				</port>
				<port id="2" precision="I64" />
			</input>
			<output>
				<port id="3" precision="I64" names="352">
					<dim>1</dim>
				</port>
			</output>
		</layer>
		<layer id="176" name="Squeeze_581453" type="Squeeze" version="opset1">
			<input>
				<port id="0" precision="I64">
					<dim>1</dim>
				</port>
			</input>
			<output>
				<port id="1" precision="I64" names="382" />
			</output>
		</layer>
		<layer id="177" name="Constant_554685" type="Const" version="opset1">
			<data element_type="i64" shape="" offset="394185" size="8" />
			<output>
				<port id="0" precision="I64" />
			</output>
		</layer>
		<layer id="178" name="__module.model.enc_p.encoder.attn_layers.0/aten::sub/Subtract_2" type="Add" version="opset1">
			<data auto_broadcast="numpy" />
			<input>
				<port id="0" precision="I64" />
				<port id="1" precision="I64" />
			</input>
			<output>
				<port id="2" precision="I64" names="391,392,402,403" />
			</output>
		</layer>
		<layer id="179" name="Constant_143233" type="Const" version="opset1">
			<data element_type="i32" shape="" offset="0" size="4" />
			<output>
				<port id="0" precision="I32" />
			</output>
		</layer>
		<layer id="180" name="Unsqueeze_143235" type="Unsqueeze" version="opset1">
			<input>
				<port id="0" precision="I64" />
				<port id="1" precision="I32" />
			</input>
			<output>
				<port id="2" precision="I64">
					<dim>1</dim>
				</port>
			</output>
		</layer>
		<layer id="181" name="Concat_143240" type="Concat" version="opset1">
			<data axis="0" />
			<input>
				<port id="0" precision="I64">
					<dim>1</dim>
				</port>
				<port id="1" precision="I64">
					<dim>1</dim>
				</port>
				<port id="2" precision="I64">
					<dim>1</dim>
				</port>
				<port id="3" precision="I64">
					<dim>1</dim>
				</port>
				<port id="4" precision="I64">
					<dim>1</dim>
				</port>
				<port id="5" precision="I64">
					<dim>1</dim>
				</port>
			</input>
			<output>
				<port id="6" precision="I64">
					<dim>6</dim>
				</port>
			</output>
		</layer>
		<layer id="182" name="__module.model.enc_p.encoder.attn_layers.0/aten::pad/Range_1" type="Const" version="opset1">
			<data element_type="i32" shape="3" offset="474129" size="12" />
			<output>
				<port id="0" precision="I32">
					<dim>3</dim>
				</port>
			</output>
		</layer>
		<layer id="183" name="Constant_143249" type="Const" version="opset1">
			<data element_type="i32" shape="" offset="0" size="4" />
			<output>
				<port id="0" precision="I32" />
			</output>
		</layer>
		<layer id="184" name="__module.model.enc_p.encoder.attn_layers.0/aten::pad/Gather_1" type="Gather" version="opset8">
			<data batch_dims="0" />
			<input>
				<port id="0" precision="I64">
					<dim>6</dim>
				</port>
				<port id="1" precision="I32">
					<dim>3</dim>
				</port>
				<port id="2" precision="I32" />
			</input>
			<output>
				<port id="3" precision="I64">
					<dim>3</dim>
				</port>
			</output>
		</layer>
		<layer id="185" name="__module.model.enc_p.encoder.attn_layers.0/aten::pad/Range_4_1" type="Const" version="opset1">
			<data element_type="i32" shape="3" offset="474141" size="12" />
			<output>
				<port id="0" precision="I32">
					<dim>3</dim>
				</port>
			</output>
		</layer>
		<layer id="186" name="Constant_143267" type="Const" version="opset1">
			<data element_type="i32" shape="" offset="0" size="4" />
			<output>
				<port id="0" precision="I32" />
			</output>
		</layer>
		<layer id="187" name="__module.model.enc_p.encoder.attn_layers.0/aten::pad/Gather_5_1" type="Gather" version="opset8">
			<data batch_dims="0" />
			<input>
				<port id="0" precision="I64">
					<dim>6</dim>
				</port>
				<port id="1" precision="I32">
					<dim>3</dim>
				</port>
				<port id="2" precision="I32" />
			</input>
			<output>
				<port id="3" precision="I64">
					<dim>3</dim>
				</port>
			</output>
		</layer>
		<layer id="188" name="__module.model.enc_p.encoder.attn_layers.0/aten::pad/ConvertLike_11_1" type="Const" version="opset1">
			<data element_type="f32" shape="" offset="0" size="4" />
			<output>
				<port id="0" precision="FP32" />
			</output>
		</layer>
		<layer id="189" name="__module.model.enc_p.encoder.attn_layers.0/aten::pad_1" type="Pad" version="opset1">
			<data pad_mode="constant" />
			<input>
				<port id="0" precision="FP32">
					<dim>-1</dim>
					<dim>2</dim>
					<dim>-1</dim>
				</port>
				<port id="1" precision="I64">
					<dim>3</dim>
				</port>
				<port id="2" precision="I64">
					<dim>3</dim>
				</port>
				<port id="3" precision="FP32" />
			</input>
			<output>
				<port id="4" precision="FP32" names="394,x_flat.1">
					<dim>-1</dim>
					<dim>2</dim>
					<dim>-1</dim>
				</port>
			</output>
		</layer>
		<layer id="190" name="Constant_581434" type="Const" version="opset1">
			<data element_type="i64" shape="1" offset="394165" size="8" />
			<output>
				<port id="0" precision="I64">
					<dim>1</dim>
				</port>
			</output>
		</layer>
		<layer id="191" name="Constant_581435" type="Const" version="opset1">
			<data element_type="i64" shape="" offset="394165" size="8" />
			<output>
				<port id="0" precision="I64" />
			</output>
		</layer>
		<layer id="192" name="Gather_581436" type="Gather" version="opset8">
			<data batch_dims="0" />
			<input>
				<port id="0" precision="I64">
					<dim>3</dim>
				</port>
				<port id="1" precision="I64">
					<dim>1</dim>
				</port>
				<port id="2" precision="I64" />
			</input>
			<output>
				<port id="3" precision="I64" names="348,380">
					<dim>1</dim>
				</port>
			</output>
		</layer>
		<layer id="193" name="Constant_1353" type="Const" version="opset1">
			<data element_type="i64" shape="1" offset="394157" size="8" />
			<output>
				<port id="0" precision="I64">
					<dim>1</dim>
				</port>
			</output>
		</layer>
		<layer id="194" name="Constant_480481" type="Const" version="opset1">
			<data element_type="i64" shape="1" offset="394177" size="8" />
			<output>
				<port id="0" precision="I64">
					<dim>1</dim>
				</port>
			</output>
		</layer>
		<layer id="195" name="__module.model.enc_p.encoder.attn_layers.0/aten::add/Add_1" type="Add" version="opset1">
			<data auto_broadcast="numpy" />
			<input>
				<port id="0" precision="I64">
					<dim>1</dim>
				</port>
				<port id="1" precision="I64">
					<dim>1</dim>
				</port>
			</input>
			<output>
				<port id="2" precision="I64" names="395,396">
					<dim>1</dim>
				</port>
			</output>
		</layer>
		<layer id="196" name="__module.model.enc_p.encoder.attn_layers.0/aten::mul/Multiply_1" type="Multiply" version="opset1">
			<data auto_broadcast="numpy" />
			<input>
				<port id="0" precision="I64" />
				<port id="1" precision="I64" />
			</input>
			<output>
				<port id="2" precision="I64" names="386,397" />
			</output>
		</layer>
		<layer id="197" name="Constant_554689" type="Const" version="opset1">
			<data element_type="i64" shape="" offset="394185" size="8" />
			<output>
				<port id="0" precision="I64" />
			</output>
		</layer>
		<layer id="198" name="__module.model.enc_p.encoder.attn_layers.0/aten::sub/Subtract_3" type="Add" version="opset1">
			<data auto_broadcast="numpy" />
			<input>
				<port id="0" precision="I64" />
				<port id="1" precision="I64" />
			</input>
			<output>
				<port id="2" precision="I64" names="398,399" />
			</output>
		</layer>
		<layer id="199" name="Constant_1348" type="Const" version="opset1">
			<data element_type="i32" shape="" offset="0" size="4" />
			<output>
				<port id="0" precision="I32" />
			</output>
		</layer>
		<layer id="200" name="Unsqueeze_1349" type="Unsqueeze" version="opset1">
			<input>
				<port id="0" precision="I64" />
				<port id="1" precision="I32" />
			</input>
			<output>
				<port id="2" precision="I64">
					<dim>1</dim>
				</port>
			</output>
		</layer>
		<layer id="201" name="__module.model.enc_p.encoder.attn_layers.0/prim::ListConstruct_3" type="Concat" version="opset1">
			<data axis="0" />
			<input>
				<port id="0" precision="I64">
					<dim>1</dim>
				</port>
				<port id="1" precision="I64">
					<dim>1</dim>
				</port>
				<port id="2" precision="I64">
					<dim>1</dim>
				</port>
				<port id="3" precision="I64">
					<dim>1</dim>
				</port>
			</input>
			<output>
				<port id="4" precision="I64">
					<dim>4</dim>
				</port>
			</output>
		</layer>
		<layer id="202" name="__module.model.enc_p.encoder.attn_layers.0/aten::view/Reshape_3" type="Reshape" version="opset1">
			<data special_zero="false" />
			<input>
				<port id="0" precision="FP32">
					<dim>-1</dim>
					<dim>2</dim>
					<dim>-1</dim>
				</port>
				<port id="1" precision="I64">
					<dim>4</dim>
				</port>
			</input>
			<output>
				<port id="2" precision="FP32" names="401,404,405">
					<dim>-1</dim>
					<dim>2</dim>
					<dim>-1</dim>
					<dim>-1</dim>
				</port>
			</output>
		</layer>
		<layer id="203" name="Constant_1449" type="Const" version="opset1">
			<data element_type="i64" shape="1" offset="394165" size="8" />
			<output>
				<port id="0" precision="I64">
					<dim>1</dim>
				</port>
			</output>
		</layer>
		<layer id="204" name="Constant_317194" type="Const" version="opset1">
			<data element_type="i64" shape="1" offset="394185" size="8" />
			<output>
				<port id="0" precision="I64">
					<dim>1</dim>
				</port>
			</output>
		</layer>
		<layer id="205" name="__module.model.enc_p.encoder.attn_layers.0/aten::slice/Reshape_2" type="Reshape" version="opset1">
			<data special_zero="false" />
			<input>
				<port id="0" precision="I64" />
				<port id="1" precision="I64">
					<dim>1</dim>
				</port>
			</input>
			<output>
				<port id="2" precision="I64">
					<dim>1</dim>
				</port>
			</output>
		</layer>
		<layer id="206" name="Concat_503329" type="Concat" version="opset1">
			<data axis="0" />
			<input>
				<port id="0" precision="I64">
					<dim>1</dim>
				</port>
				<port id="1" precision="I64">
					<dim>1</dim>
				</port>
			</input>
			<output>
				<port id="2" precision="I64">
					<dim>2</dim>
				</port>
			</output>
		</layer>
		<layer id="207" name="Constant_1459" type="Const" version="opset1">
			<data element_type="i64" shape="1" offset="474209" size="8" />
			<output>
				<port id="0" precision="I64">
					<dim>1</dim>
				</port>
			</output>
		</layer>
		<layer id="208" name="Concat_503330" type="Concat" version="opset1">
			<data axis="0" />
			<input>
				<port id="0" precision="I64">
					<dim>1</dim>
				</port>
				<port id="1" precision="I64">
					<dim>1</dim>
				</port>
			</input>
			<output>
				<port id="2" precision="I64">
					<dim>2</dim>
				</port>
			</output>
		</layer>
		<layer id="209" name="Constant_503334" type="Const" version="opset1">
			<data element_type="i64" shape="2" offset="474217" size="16" />
			<output>
				<port id="0" precision="I64">
					<dim>2</dim>
				</port>
			</output>
		</layer>
		<layer id="210" name="Constant_503333" type="Const" version="opset1">
			<data element_type="i64" shape="2" offset="474233" size="16" />
			<output>
				<port id="0" precision="I64">
					<dim>2</dim>
				</port>
			</output>
		</layer>
		<layer id="211" name="__module.model.enc_p.encoder.attn_layers.0/aten::slice/Slice_5" type="Slice" version="opset8">
			<input>
				<port id="0" precision="FP32">
					<dim>-1</dim>
					<dim>2</dim>
					<dim>-1</dim>
					<dim>-1</dim>
				</port>
				<port id="1" precision="I64">
					<dim>2</dim>
				</port>
				<port id="2" precision="I64">
					<dim>2</dim>
				</port>
				<port id="3" precision="I64">
					<dim>2</dim>
				</port>
				<port id="4" precision="I64">
					<dim>2</dim>
				</port>
			</input>
			<output>
				<port id="5" precision="FP32" names="407,scores_local.1">
					<dim>-1</dim>
					<dim>2</dim>
					<dim>-1</dim>
					<dim>-1</dim>
				</port>
			</output>
		</layer>
		<layer id="212" name="__module.model.enc_p.encoder.attn_layers.0/aten::add/Add_2" type="Add" version="opset1">
			<data auto_broadcast="numpy" />
			<input>
				<port id="0" precision="FP32">
					<dim>-1</dim>
					<dim>2</dim>
					<dim>-1</dim>
					<dim>-1</dim>
				</port>
				<port id="1" precision="FP32">
					<dim>-1</dim>
					<dim>2</dim>
					<dim>-1</dim>
					<dim>-1</dim>
				</port>
			</input>
			<output>
				<port id="2" precision="FP32" names="408,scores.3">
					<dim>-1</dim>
					<dim>2</dim>
					<dim>-1</dim>
					<dim>-1</dim>
				</port>
			</output>
		</layer>
		<layer id="213" name="__module.model.enc_p.encoder.attn_layers.0/aten::masked_fill/Select" type="Select" version="opset1">
			<data auto_broadcast="numpy" />
			<input>
				<port id="0" precision="BOOL">
					<dim>-1</dim>
					<dim>1</dim>
					<dim>-1</dim>
					<dim>-1</dim>
				</port>
				<port id="1" precision="FP32" />
				<port id="2" precision="FP32">
					<dim>-1</dim>
					<dim>2</dim>
					<dim>-1</dim>
					<dim>-1</dim>
				</port>
			</input>
			<output>
				<port id="3" precision="FP32" names="410,input.7">
					<dim>-1</dim>
					<dim>2</dim>
					<dim>-1</dim>
					<dim>-1</dim>
				</port>
			</output>
		</layer>
		<layer id="214" name="__module.model.enc_p.encoder.attn_layers.0/aten::softmax/Softmax" type="SoftMax" version="opset8">
			<data axis="-1" />
			<input>
				<port id="0" precision="FP32">
					<dim>-1</dim>
					<dim>2</dim>
					<dim>-1</dim>
					<dim>-1</dim>
				</port>
			</input>
			<output>
				<port id="1" precision="FP32" names="411,input.9">
					<dim>-1</dim>
					<dim>2</dim>
					<dim>-1</dim>
					<dim>-1</dim>
				</port>
			</output>
		</layer>
		<layer id="215" name="self.model.enc_p.encoder.attn_layers.0.conv_v.weight" type="Const" version="opset1">
			<data element_type="u8" shape="192, 192, 1" offset="474249" size="36864" />
			<output>
				<port id="0" precision="U8">
					<dim>192</dim>
					<dim>192</dim>
					<dim>1</dim>
				</port>
			</output>
		</layer>
		<layer id="216" name="Convert_1007611" type="Convert" version="opset1">
			<data destination_type="f16" />
			<input>
				<port id="0" precision="U8">
					<dim>192</dim>
					<dim>192</dim>
					<dim>1</dim>
				</port>
			</input>
			<output>
				<port id="1" precision="FP16">
					<dim>192</dim>
					<dim>192</dim>
					<dim>1</dim>
				</port>
			</output>
		</layer>
		<layer id="217" name="self.model.enc_p.encoder.attn_layers.0.conv_v.weight/zero_point" type="Const" version="opset1">
			<data element_type="u8" shape="192, 1, 1" offset="511113" size="192" />
			<output>
				<port id="0" precision="U8">
					<dim>192</dim>
					<dim>1</dim>
					<dim>1</dim>
				</port>
			</output>
		</layer>
		<layer id="218" name="Convert_1007614" type="Convert" version="opset1">
			<data destination_type="f16" />
			<input>
				<port id="0" precision="U8">
					<dim>192</dim>
					<dim>1</dim>
					<dim>1</dim>
				</port>
			</input>
			<output>
				<port id="1" precision="FP16">
					<dim>192</dim>
					<dim>1</dim>
					<dim>1</dim>
				</port>
			</output>
		</layer>
		<layer id="219" name="self.model.enc_p.encoder.attn_layers.0.conv_v.weight/zero_point/subtract" type="Subtract" version="opset1">
			<data auto_broadcast="numpy" />
			<input>
				<port id="0" precision="FP16">
					<dim>192</dim>
					<dim>192</dim>
					<dim>1</dim>
				</port>
				<port id="1" precision="FP16">
					<dim>192</dim>
					<dim>1</dim>
					<dim>1</dim>
				</port>
			</input>
			<output>
				<port id="2" precision="FP16">
					<dim>192</dim>
					<dim>192</dim>
					<dim>1</dim>
				</port>
			</output>
		</layer>
		<layer id="220" name="self.model.enc_p.encoder.attn_layers.0.conv_v.weight/scale" type="Const" version="opset1">
			<data element_type="f16" shape="192, 1, 1" offset="511305" size="384" />
			<output>
				<port id="0" precision="FP16">
					<dim>192</dim>
					<dim>1</dim>
					<dim>1</dim>
				</port>
			</output>
		</layer>
		<layer id="221" name="self.model.enc_p.encoder.attn_layers.0.conv_v.weight/fq_weights_1" type="Multiply" version="opset1">
			<data auto_broadcast="numpy" />
			<input>
				<port id="0" precision="FP16">
					<dim>192</dim>
					<dim>192</dim>
					<dim>1</dim>
				</port>
				<port id="1" precision="FP16">
					<dim>192</dim>
					<dim>1</dim>
					<dim>1</dim>
				</port>
			</input>
			<output>
				<port id="2" precision="FP16">
					<dim>192</dim>
					<dim>192</dim>
					<dim>1</dim>
				</port>
			</output>
		</layer>
		<layer id="222" name="self.model.enc_p.encoder.attn_layers.0.conv_v.weight/fq_weights_1/convert" type="Convert" version="opset1">
			<data destination_type="f32" />
			<input>
				<port id="0" precision="FP16">
					<dim>192</dim>
					<dim>192</dim>
					<dim>1</dim>
				</port>
			</input>
			<output>
				<port id="1" precision="FP32">
					<dim>192</dim>
					<dim>192</dim>
					<dim>1</dim>
				</port>
			</output>
		</layer>
		<layer id="223" name="__module.model.enc_p.encoder.attn_layers.0.conv_v/aten::_convolution/Convolution" type="Convolution" version="opset1">
			<data strides="1" dilations="1" pads_begin="0" pads_end="0" auto_pad="explicit" />
			<input>
				<port id="0" precision="FP32">
					<dim>-1</dim>
					<dim>192</dim>
					<dim>-1</dim>
				</port>
				<port id="1" precision="FP32">
					<dim>192</dim>
					<dim>192</dim>
					<dim>1</dim>
				</port>
			</input>
			<output>
				<port id="2" precision="FP32">
					<dim>-1</dim>
					<dim>192</dim>
					<dim>-1</dim>
				</port>
			</output>
		</layer>
		<layer id="224" name="__module.model.enc_p.encoder.attn_layers.0.conv_v/aten::_convolution/Reshape" type="Const" version="opset1">
			<data element_type="f32" shape="1, 192, 1" offset="511689" size="768" />
			<output>
				<port id="0" precision="FP32">
					<dim>1</dim>
					<dim>192</dim>
					<dim>1</dim>
				</port>
			</output>
		</layer>
		<layer id="225" name="__module.model.enc_p.encoder.attn_layers.0.conv_v/aten::_convolution/Add" type="Add" version="opset1">
			<data auto_broadcast="numpy" />
			<input>
				<port id="0" precision="FP32">
					<dim>-1</dim>
					<dim>192</dim>
					<dim>-1</dim>
				</port>
				<port id="1" precision="FP32">
					<dim>1</dim>
					<dim>192</dim>
					<dim>1</dim>
				</port>
			</input>
			<output>
				<port id="2" precision="FP32" names="347,value.1">
					<dim>-1</dim>
					<dim>192</dim>
					<dim>-1</dim>
				</port>
			</output>
		</layer>
		<layer id="226" name="Constant_582663" type="Const" version="opset1">
			<data element_type="i64" shape="4" offset="432405" size="32" />
			<output>
				<port id="0" precision="I64">
					<dim>4</dim>
				</port>
			</output>
		</layer>
		<layer id="227" name="__module.model.enc_p.encoder.attn_layers.0/aten::view/Reshape_4" type="Reshape" version="opset1">
			<data special_zero="true" />
			<input>
				<port id="0" precision="FP32">
					<dim>-1</dim>
					<dim>192</dim>
					<dim>-1</dim>
				</port>
				<port id="1" precision="I64">
					<dim>4</dim>
				</port>
			</input>
			<output>
				<port id="2" precision="FP32" names="360">
					<dim>-1</dim>
					<dim>2</dim>
					<dim>96</dim>
					<dim>-1</dim>
				</port>
			</output>
		</layer>
		<layer id="228" name="__module.model.enc_p.encoder.attn_layers.0/aten::matmul/MatMul_2" type="MatMul" version="opset1">
			<data transpose_a="false" transpose_b="true" />
			<input>
				<port id="0" precision="FP32">
					<dim>-1</dim>
					<dim>2</dim>
					<dim>-1</dim>
					<dim>-1</dim>
				</port>
				<port id="1" precision="FP32">
					<dim>-1</dim>
					<dim>2</dim>
					<dim>96</dim>
					<dim>-1</dim>
				</port>
			</input>
			<output>
				<port id="2" precision="FP32" names="413,output.1">
					<dim>-1</dim>
					<dim>2</dim>
					<dim>-1</dim>
					<dim>96</dim>
				</port>
			</output>
		</layer>
		<layer id="229" name="ShapeOf_581464" type="ShapeOf" version="opset3">
			<data output_type="i64" />
			<input>
				<port id="0" precision="FP32">
					<dim>-1</dim>
					<dim>2</dim>
					<dim>-1</dim>
					<dim>-1</dim>
				</port>
			</input>
			<output>
				<port id="1" precision="I64">
					<dim>4</dim>
				</port>
			</output>
		</layer>
		<layer id="230" name="Constant_581465" type="Const" version="opset1">
			<data element_type="i64" shape="" offset="394157" size="8" />
			<output>
				<port id="0" precision="I64" />
			</output>
		</layer>
		<layer id="231" name="Constant_581466" type="Const" version="opset1">
			<data element_type="i64" shape="" offset="394165" size="8" />
			<output>
				<port id="0" precision="I64" />
			</output>
		</layer>
		<layer id="232" name="Gather_581467" type="Gather" version="opset8">
			<data batch_dims="0" />
			<input>
				<port id="0" precision="I64">
					<dim>4</dim>
				</port>
				<port id="1" precision="I64" />
				<port id="2" precision="I64" />
			</input>
			<output>
				<port id="3" precision="I64" names="416" />
			</output>
		</layer>
		<layer id="233" name="Constant_143442" type="Const" version="opset1">
			<data element_type="i32" shape="" offset="0" size="4" />
			<output>
				<port id="0" precision="I32" />
			</output>
		</layer>
		<layer id="234" name="Unsqueeze_582853" type="Unsqueeze" version="opset1">
			<input>
				<port id="0" precision="I64" />
				<port id="1" precision="I32" />
			</input>
			<output>
				<port id="2" precision="I64">
					<dim>1</dim>
				</port>
			</output>
		</layer>
		<layer id="235" name="Constant_582855" type="Const" version="opset1">
			<data element_type="i64" shape="1" offset="394185" size="8" />
			<output>
				<port id="0" precision="I64">
					<dim>1</dim>
				</port>
			</output>
		</layer>
		<layer id="236" name="__module.model.enc_p.encoder.attn_layers.0/aten::sub/Subtract_5" type="Add" version="opset1">
			<data auto_broadcast="numpy" />
			<input>
				<port id="0" precision="I64">
					<dim>1</dim>
				</port>
				<port id="1" precision="I64">
					<dim>1</dim>
				</port>
			</input>
			<output>
				<port id="2" precision="I64" names="418,419,423">
					<dim>1</dim>
				</port>
			</output>
		</layer>
		<layer id="237" name="Concat_143451" type="Concat" version="opset1">
			<data axis="0" />
			<input>
				<port id="0" precision="I64">
					<dim>1</dim>
				</port>
				<port id="1" precision="I64">
					<dim>1</dim>
				</port>
				<port id="2" precision="I64">
					<dim>1</dim>
				</port>
				<port id="3" precision="I64">
					<dim>1</dim>
				</port>
				<port id="4" precision="I64">
					<dim>1</dim>
				</port>
				<port id="5" precision="I64">
					<dim>1</dim>
				</port>
				<port id="6" precision="I64">
					<dim>1</dim>
				</port>
				<port id="7" precision="I64">
					<dim>1</dim>
				</port>
			</input>
			<output>
				<port id="8" precision="I64">
					<dim>8</dim>
				</port>
			</output>
		</layer>
		<layer id="238" name="__module.model.enc_p.encoder.attn_layers.0/aten::pad/Range_2" type="Const" version="opset1">
			<data element_type="i32" shape="4" offset="512457" size="16" />
			<output>
				<port id="0" precision="I32">
					<dim>4</dim>
				</port>
			</output>
		</layer>
		<layer id="239" name="Constant_143460" type="Const" version="opset1">
			<data element_type="i32" shape="" offset="0" size="4" />
			<output>
				<port id="0" precision="I32" />
			</output>
		</layer>
		<layer id="240" name="__module.model.enc_p.encoder.attn_layers.0/aten::pad/Gather_2" type="Gather" version="opset8">
			<data batch_dims="0" />
			<input>
				<port id="0" precision="I64">
					<dim>8</dim>
				</port>
				<port id="1" precision="I32">
					<dim>4</dim>
				</port>
				<port id="2" precision="I32" />
			</input>
			<output>
				<port id="3" precision="I64">
					<dim>4</dim>
				</port>
			</output>
		</layer>
		<layer id="241" name="__module.model.enc_p.encoder.attn_layers.0/aten::pad/Range_4_2" type="Const" version="opset1">
			<data element_type="i32" shape="4" offset="512473" size="16" />
			<output>
				<port id="0" precision="I32">
					<dim>4</dim>
				</port>
			</output>
		</layer>
		<layer id="242" name="Constant_143478" type="Const" version="opset1">
			<data element_type="i32" shape="" offset="0" size="4" />
			<output>
				<port id="0" precision="I32" />
			</output>
		</layer>
		<layer id="243" name="__module.model.enc_p.encoder.attn_layers.0/aten::pad/Gather_5_2" type="Gather" version="opset8">
			<data batch_dims="0" />
			<input>
				<port id="0" precision="I64">
					<dim>8</dim>
				</port>
				<port id="1" precision="I32">
					<dim>4</dim>
				</port>
				<port id="2" precision="I32" />
			</input>
			<output>
				<port id="3" precision="I64">
					<dim>4</dim>
				</port>
			</output>
		</layer>
		<layer id="244" name="__module.model.enc_p.encoder.attn_layers.0/aten::pad/ConvertLike_11_2" type="Const" version="opset1">
			<data element_type="f32" shape="" offset="0" size="4" />
			<output>
				<port id="0" precision="FP32" />
			</output>
		</layer>
		<layer id="245" name="__module.model.enc_p.encoder.attn_layers.0/aten::pad_2" type="Pad" version="opset1">
			<data pad_mode="constant" />
			<input>
				<port id="0" precision="FP32">
					<dim>-1</dim>
					<dim>2</dim>
					<dim>-1</dim>
					<dim>-1</dim>
				</port>
				<port id="1" precision="I64">
					<dim>4</dim>
				</port>
				<port id="2" precision="I64">
					<dim>4</dim>
				</port>
				<port id="3" precision="FP32" />
			</input>
			<output>
				<port id="4" precision="FP32" names="421,x.17">
					<dim>-1</dim>
					<dim>2</dim>
					<dim>-1</dim>
					<dim>-1</dim>
				</port>
			</output>
		</layer>
		<layer id="246" name="Constant_582664" type="Const" version="opset1">
			<data element_type="i64" shape="3" offset="474185" size="24" />
			<output>
				<port id="0" precision="I64">
					<dim>3</dim>
				</port>
			</output>
		</layer>
		<layer id="247" name="__module.model.enc_p.encoder.attn_layers.0/aten::view/Reshape_5" type="Reshape" version="opset1">
			<data special_zero="true" />
			<input>
				<port id="0" precision="FP32">
					<dim>-1</dim>
					<dim>2</dim>
					<dim>-1</dim>
					<dim>-1</dim>
				</port>
				<port id="1" precision="I64">
					<dim>3</dim>
				</port>
			</input>
			<output>
				<port id="2" precision="FP32" names="428,input.11">
					<dim>-1</dim>
					<dim>2</dim>
					<dim>-1</dim>
				</port>
			</output>
		</layer>
		<layer id="248" name="Constant_581474" type="Const" version="opset1">
			<data element_type="i64" shape="1" offset="394177" size="8" />
			<output>
				<port id="0" precision="I64">
					<dim>1</dim>
				</port>
			</output>
		</layer>
		<layer id="249" name="Reshape_581475" type="Reshape" version="opset1">
			<data special_zero="false" />
			<input>
				<port id="0" precision="I64" />
				<port id="1" precision="I64">
					<dim>1</dim>
				</port>
			</input>
			<output>
				<port id="2" precision="I64">
					<dim>1</dim>
				</port>
			</output>
		</layer>
		<layer id="250" name="Concat_143660" type="Concat" version="opset1">
			<data axis="0" />
			<input>
				<port id="0" precision="I64">
					<dim>1</dim>
				</port>
				<port id="1" precision="I64">
					<dim>1</dim>
				</port>
				<port id="2" precision="I64">
					<dim>1</dim>
				</port>
				<port id="3" precision="I64">
					<dim>1</dim>
				</port>
				<port id="4" precision="I64">
					<dim>1</dim>
				</port>
				<port id="5" precision="I64">
					<dim>1</dim>
				</port>
			</input>
			<output>
				<port id="6" precision="I64">
					<dim>6</dim>
				</port>
			</output>
		</layer>
		<layer id="251" name="__module.model.enc_p.encoder.attn_layers.0/aten::pad/Range_3" type="Const" version="opset1">
			<data element_type="i32" shape="3" offset="474129" size="12" />
			<output>
				<port id="0" precision="I32">
					<dim>3</dim>
				</port>
			</output>
		</layer>
		<layer id="252" name="Constant_143669" type="Const" version="opset1">
			<data element_type="i32" shape="" offset="0" size="4" />
			<output>
				<port id="0" precision="I32" />
			</output>
		</layer>
		<layer id="253" name="__module.model.enc_p.encoder.attn_layers.0/aten::pad/Gather_3" type="Gather" version="opset8">
			<data batch_dims="0" />
			<input>
				<port id="0" precision="I64">
					<dim>6</dim>
				</port>
				<port id="1" precision="I32">
					<dim>3</dim>
				</port>
				<port id="2" precision="I32" />
			</input>
			<output>
				<port id="3" precision="I64">
					<dim>3</dim>
				</port>
			</output>
		</layer>
		<layer id="254" name="__module.model.enc_p.encoder.attn_layers.0/aten::pad/Range_4_3" type="Const" version="opset1">
			<data element_type="i32" shape="3" offset="474141" size="12" />
			<output>
				<port id="0" precision="I32">
					<dim>3</dim>
				</port>
			</output>
		</layer>
		<layer id="255" name="Constant_143687" type="Const" version="opset1">
			<data element_type="i32" shape="" offset="0" size="4" />
			<output>
				<port id="0" precision="I32" />
			</output>
		</layer>
		<layer id="256" name="__module.model.enc_p.encoder.attn_layers.0/aten::pad/Gather_5_3" type="Gather" version="opset8">
			<data batch_dims="0" />
			<input>
				<port id="0" precision="I64">
					<dim>6</dim>
				</port>
				<port id="1" precision="I32">
					<dim>3</dim>
				</port>
				<port id="2" precision="I32" />
			</input>
			<output>
				<port id="3" precision="I64">
					<dim>3</dim>
				</port>
			</output>
		</layer>
		<layer id="257" name="__module.model.enc_p.encoder.attn_layers.0/aten::pad/ConvertLike_11_3" type="Const" version="opset1">
			<data element_type="f32" shape="" offset="0" size="4" />
			<output>
				<port id="0" precision="FP32" />
			</output>
		</layer>
		<layer id="258" name="__module.model.enc_p.encoder.attn_layers.0/aten::pad_3" type="Pad" version="opset1">
			<data pad_mode="constant" />
			<input>
				<port id="0" precision="FP32">
					<dim>-1</dim>
					<dim>2</dim>
					<dim>-1</dim>
				</port>
				<port id="1" precision="I64">
					<dim>3</dim>
				</port>
				<port id="2" precision="I64">
					<dim>3</dim>
				</port>
				<port id="3" precision="FP32" />
			</input>
			<output>
				<port id="4" precision="FP32" names="430,x_flat.3">
					<dim>-1</dim>
					<dim>2</dim>
					<dim>-1</dim>
				</port>
			</output>
		</layer>
		<layer id="259" name="Constant_581469" type="Const" version="opset1">
			<data element_type="i64" shape="1" offset="394165" size="8" />
			<output>
				<port id="0" precision="I64">
					<dim>1</dim>
				</port>
			</output>
		</layer>
		<layer id="260" name="Constant_581470" type="Const" version="opset1">
			<data element_type="i64" shape="" offset="394165" size="8" />
			<output>
				<port id="0" precision="I64" />
			</output>
		</layer>
		<layer id="261" name="Gather_581471" type="Gather" version="opset8">
			<data batch_dims="0" />
			<input>
				<port id="0" precision="I64">
					<dim>4</dim>
				</port>
				<port id="1" precision="I64">
					<dim>1</dim>
				</port>
				<port id="2" precision="I64" />
			</input>
			<output>
				<port id="3" precision="I64" names="414">
					<dim>1</dim>
				</port>
			</output>
		</layer>
		<layer id="262" name="Constant_1752" type="Const" version="opset1">
			<data element_type="i64" shape="1" offset="394157" size="8" />
			<output>
				<port id="0" precision="I64">
					<dim>1</dim>
				</port>
			</output>
		</layer>
		<layer id="263" name="Constant_480484" type="Const" version="opset1">
			<data element_type="i64" shape="1" offset="394157" size="8" />
			<output>
				<port id="0" precision="I64">
					<dim>1</dim>
				</port>
			</output>
		</layer>
		<layer id="264" name="__module.model.enc_p.encoder.attn_layers.0/aten::mul/Multiply_5" type="Multiply" version="opset1">
			<data auto_broadcast="numpy" />
			<input>
				<port id="0" precision="I64">
					<dim>1</dim>
				</port>
				<port id="1" precision="I64">
					<dim>1</dim>
				</port>
			</input>
			<output>
				<port id="2" precision="I64" names="431,432">
					<dim>1</dim>
				</port>
			</output>
		</layer>
		<layer id="265" name="__module.model.enc_p.encoder.attn_layers.0/prim::ListConstruct_6" type="Concat" version="opset1">
			<data axis="0" />
			<input>
				<port id="0" precision="I64">
					<dim>1</dim>
				</port>
				<port id="1" precision="I64">
					<dim>1</dim>
				</port>
				<port id="2" precision="I64">
					<dim>1</dim>
				</port>
				<port id="3" precision="I64">
					<dim>1</dim>
				</port>
			</input>
			<output>
				<port id="4" precision="I64">
					<dim>4</dim>
				</port>
			</output>
		</layer>
		<layer id="266" name="__module.model.enc_p.encoder.attn_layers.0/aten::view/Reshape_6" type="Reshape" version="opset1">
			<data special_zero="false" />
			<input>
				<port id="0" precision="FP32">
					<dim>-1</dim>
					<dim>2</dim>
					<dim>-1</dim>
				</port>
				<port id="1" precision="I64">
					<dim>4</dim>
				</port>
			</input>
			<output>
				<port id="2" precision="FP32" names="434,435,436,437">
					<dim>-1</dim>
					<dim>2</dim>
					<dim>-1</dim>
					<dim>-1</dim>
				</port>
			</output>
		</layer>
		<layer id="267" name="Constant_1921" type="Const" version="opset1">
			<data element_type="i64" shape="1" offset="394177" size="8" />
			<output>
				<port id="0" precision="I64">
					<dim>1</dim>
				</port>
			</output>
		</layer>
		<layer id="268" name="Constant_1923" type="Const" version="opset1">
			<data element_type="i64" shape="1" offset="474209" size="8" />
			<output>
				<port id="0" precision="I64">
					<dim>1</dim>
				</port>
			</output>
		</layer>
		<layer id="269" name="Constant_1925" type="Const" version="opset1">
			<data element_type="i64" shape="1" offset="394177" size="8" />
			<output>
				<port id="0" precision="I64">
					<dim>1</dim>
				</port>
			</output>
		</layer>
		<layer id="270" name="Constant_1919" type="Const" version="opset1">
			<data element_type="i64" shape="1" offset="512489" size="8" />
			<output>
				<port id="0" precision="I64">
					<dim>1</dim>
				</port>
			</output>
		</layer>
		<layer id="271" name="__module.model.enc_p.encoder.attn_layers.0/aten::slice/Slice_9" type="Slice" version="opset8">
			<input>
				<port id="0" precision="FP32">
					<dim>-1</dim>
					<dim>2</dim>
					<dim>-1</dim>
					<dim>-1</dim>
				</port>
				<port id="1" precision="I64">
					<dim>1</dim>
				</port>
				<port id="2" precision="I64">
					<dim>1</dim>
				</port>
				<port id="3" precision="I64">
					<dim>1</dim>
				</port>
				<port id="4" precision="I64">
					<dim>1</dim>
				</port>
			</input>
			<output>
				<port id="5" precision="FP32" names="438,x.19">
					<dim>-1</dim>
					<dim>2</dim>
					<dim>-1</dim>
					<dim>-1</dim>
				</port>
			</output>
		</layer>
		<layer id="272" name="self.model.enc_p.encoder.attn_layers.0.emb_rel_v" type="Const" version="opset1">
			<data element_type="f32" shape="1, 9, 96" offset="512497" size="3456" />
			<output>
				<port id="0" precision="FP32" names="self.model.enc_p.encoder.attn_layers.0.emb_rel_v">
					<dim>1</dim>
					<dim>9</dim>
					<dim>96</dim>
				</port>
			</output>
		</layer>
		<layer id="273" name="__module.model.enc_p.encoder.attn_layers.0/aten::pad/ConvertLike_11_4" type="Const" version="opset1">
			<data element_type="f32" shape="" offset="0" size="4" />
			<output>
				<port id="0" precision="FP32" />
			</output>
		</layer>
		<layer id="274" name="__module.model.enc_p.encoder.attn_layers.0/aten::pad_4" type="Pad" version="opset1">
			<data pad_mode="constant" />
			<input>
				<port id="0" precision="FP32">
					<dim>1</dim>
					<dim>9</dim>
					<dim>96</dim>
				</port>
				<port id="1" precision="I64">
					<dim>3</dim>
				</port>
				<port id="2" precision="I64">
					<dim>3</dim>
				</port>
				<port id="3" precision="FP32" />
			</input>
			<output>
				<port id="4" precision="FP32" names="447,448,padded_relative_embeddings.3">
					<dim>1</dim>
					<dim>-1</dim>
					<dim>96</dim>
				</port>
			</output>
		</layer>
		<layer id="275" name="Constant_1979" type="Const" version="opset1">
			<data element_type="i64" shape="1" offset="394165" size="8" />
			<output>
				<port id="0" precision="I64">
					<dim>1</dim>
				</port>
			</output>
		</layer>
		<layer id="276" name="Constant_2044" type="Const" version="opset1">
			<data element_type="i64" shape="1" offset="394177" size="8" />
			<output>
				<port id="0" precision="I64">
					<dim>1</dim>
				</port>
			</output>
		</layer>
		<layer id="277" name="Constant_1977" type="Const" version="opset1">
			<data element_type="i64" shape="1" offset="394177" size="8" />
			<output>
				<port id="0" precision="I64">
					<dim>1</dim>
				</port>
			</output>
		</layer>
		<layer id="278" name="__module.model.enc_p.encoder.attn_layers.0/aten::slice/Slice_11" type="Slice" version="opset8">
			<input>
				<port id="0" precision="FP32">
					<dim>1</dim>
					<dim>-1</dim>
					<dim>96</dim>
				</port>
				<port id="1" precision="I64">
					<dim>1</dim>
				</port>
				<port id="2" precision="I64">
					<dim>1</dim>
				</port>
				<port id="3" precision="I64">
					<dim>1</dim>
				</port>
				<port id="4" precision="I64">
					<dim>1</dim>
				</port>
			</input>
			<output>
				<port id="5" precision="FP32" names="449,y.3">
					<dim>1</dim>
					<dim>-1</dim>
					<dim>96</dim>
				</port>
			</output>
		</layer>
		<layer id="279" name="__module.model.enc_p.encoder.attn_layers.0/aten::unsqueeze/Unsqueeze_1" type="Unsqueeze" version="opset1">
			<input>
				<port id="0" precision="FP32">
					<dim>1</dim>
					<dim>-1</dim>
					<dim>96</dim>
				</port>
				<port id="1" precision="I64" />
			</input>
			<output>
				<port id="2" precision="FP32" names="450">
					<dim>1</dim>
					<dim>1</dim>
					<dim>-1</dim>
					<dim>96</dim>
				</port>
			</output>
		</layer>
		<layer id="280" name="__module.model.enc_p.encoder.attn_layers.0/aten::matmul/MatMul_3" type="MatMul" version="opset1">
			<data transpose_a="false" transpose_b="false" />
			<input>
				<port id="0" precision="FP32">
					<dim>-1</dim>
					<dim>2</dim>
					<dim>-1</dim>
					<dim>-1</dim>
				</port>
				<port id="1" precision="FP32">
					<dim>1</dim>
					<dim>1</dim>
					<dim>-1</dim>
					<dim>96</dim>
				</port>
			</input>
			<output>
				<port id="2" precision="FP32" names="451">
					<dim>-1</dim>
					<dim>2</dim>
					<dim>-1</dim>
					<dim>96</dim>
				</port>
			</output>
		</layer>
		<layer id="281" name="__module.model.enc_p.encoder.attn_layers.0/aten::add/Add_5" type="Add" version="opset1">
			<data auto_broadcast="numpy" />
			<input>
				<port id="0" precision="FP32">
					<dim>-1</dim>
					<dim>2</dim>
					<dim>-1</dim>
					<dim>96</dim>
				</port>
				<port id="1" precision="FP32">
					<dim>-1</dim>
					<dim>2</dim>
					<dim>-1</dim>
					<dim>96</dim>
				</port>
			</input>
			<output>
				<port id="2" precision="FP32" names="452,output.3">
					<dim>-1</dim>
					<dim>2</dim>
					<dim>-1</dim>
					<dim>96</dim>
				</port>
			</output>
		</layer>
		<layer id="282" name="__module.model.enc_p.encoder.attn_layers.0/aten::transpose/Constant_5" type="Const" version="opset1">
			<data element_type="i32" shape="4" offset="432437" size="16" />
			<output>
				<port id="0" precision="I32">
					<dim>4</dim>
				</port>
			</output>
		</layer>
		<layer id="283" name="__module.model.enc_p.encoder.attn_layers.0/aten::transpose/Transpose_5" type="Transpose" version="opset1">
			<input>
				<port id="0" precision="FP32">
					<dim>-1</dim>
					<dim>2</dim>
					<dim>-1</dim>
					<dim>96</dim>
				</port>
				<port id="1" precision="I32">
					<dim>4</dim>
				</port>
			</input>
			<output>
				<port id="2" precision="FP32" names="453">
					<dim>-1</dim>
					<dim>2</dim>
					<dim>96</dim>
					<dim>-1</dim>
				</port>
			</output>
		</layer>
		<layer id="284" name="__module.model.enc_p.encoder.attn_layers.0/aten::view/Reshape_7" type="Reshape" version="opset1">
			<data special_zero="false" />
			<input>
				<port id="0" precision="FP32">
					<dim>-1</dim>
					<dim>2</dim>
					<dim>96</dim>
					<dim>-1</dim>
				</port>
				<port id="1" precision="I64">
					<dim>3</dim>
				</port>
			</input>
			<output>
				<port id="2" precision="FP32" names="456,input.15">
					<dim>-1</dim>
					<dim>192</dim>
					<dim>-1</dim>
				</port>
			</output>
		</layer>
		<layer id="285" name="self.model.enc_p.encoder.attn_layers.0.conv_o.weight" type="Const" version="opset1">
			<data element_type="u8" shape="192, 192, 1" offset="515953" size="36864" />
			<output>
				<port id="0" precision="U8">
					<dim>192</dim>
					<dim>192</dim>
					<dim>1</dim>
				</port>
			</output>
		</layer>
		<layer id="286" name="Convert_1011597" type="Convert" version="opset1">
			<data destination_type="f16" />
			<input>
				<port id="0" precision="U8">
					<dim>192</dim>
					<dim>192</dim>
					<dim>1</dim>
				</port>
			</input>
			<output>
				<port id="1" precision="FP16">
					<dim>192</dim>
					<dim>192</dim>
					<dim>1</dim>
				</port>
			</output>
		</layer>
		<layer id="287" name="self.model.enc_p.encoder.attn_layers.0.conv_o.weight/zero_point" type="Const" version="opset1">
			<data element_type="u8" shape="192, 1, 1" offset="552817" size="192" />
			<output>
				<port id="0" precision="U8">
					<dim>192</dim>
					<dim>1</dim>
					<dim>1</dim>
				</port>
			</output>
		</layer>
		<layer id="288" name="Convert_1011600" type="Convert" version="opset1">
			<data destination_type="f16" />
			<input>
				<port id="0" precision="U8">
					<dim>192</dim>
					<dim>1</dim>
					<dim>1</dim>
				</port>
			</input>
			<output>
				<port id="1" precision="FP16">
					<dim>192</dim>
					<dim>1</dim>
					<dim>1</dim>
				</port>
			</output>
		</layer>
		<layer id="289" name="self.model.enc_p.encoder.attn_layers.0.conv_o.weight/zero_point/subtract" type="Subtract" version="opset1">
			<data auto_broadcast="numpy" />
			<input>
				<port id="0" precision="FP16">
					<dim>192</dim>
					<dim>192</dim>
					<dim>1</dim>
				</port>
				<port id="1" precision="FP16">
					<dim>192</dim>
					<dim>1</dim>
					<dim>1</dim>
				</port>
			</input>
			<output>
				<port id="2" precision="FP16">
					<dim>192</dim>
					<dim>192</dim>
					<dim>1</dim>
				</port>
			</output>
		</layer>
		<layer id="290" name="self.model.enc_p.encoder.attn_layers.0.conv_o.weight/scale" type="Const" version="opset1">
			<data element_type="f16" shape="192, 1, 1" offset="553009" size="384" />
			<output>
				<port id="0" precision="FP16">
					<dim>192</dim>
					<dim>1</dim>
					<dim>1</dim>
				</port>
			</output>
		</layer>
		<layer id="291" name="self.model.enc_p.encoder.attn_layers.0.conv_o.weight/fq_weights_1" type="Multiply" version="opset1">
			<data auto_broadcast="numpy" />
			<input>
				<port id="0" precision="FP16">
					<dim>192</dim>
					<dim>192</dim>
					<dim>1</dim>
				</port>
				<port id="1" precision="FP16">
					<dim>192</dim>
					<dim>1</dim>
					<dim>1</dim>
				</port>
			</input>
			<output>
				<port id="2" precision="FP16">
					<dim>192</dim>
					<dim>192</dim>
					<dim>1</dim>
				</port>
			</output>
		</layer>
		<layer id="292" name="self.model.enc_p.encoder.attn_layers.0.conv_o.weight/fq_weights_1/convert" type="Convert" version="opset1">
			<data destination_type="f32" />
			<input>
				<port id="0" precision="FP16">
					<dim>192</dim>
					<dim>192</dim>
					<dim>1</dim>
				</port>
			</input>
			<output>
				<port id="1" precision="FP32">
					<dim>192</dim>
					<dim>192</dim>
					<dim>1</dim>
				</port>
			</output>
		</layer>
		<layer id="293" name="__module.model.enc_p.encoder.attn_layers.0.conv_o/aten::_convolution/Convolution" type="Convolution" version="opset1">
			<data strides="1" dilations="1" pads_begin="0" pads_end="0" auto_pad="explicit" />
			<input>
				<port id="0" precision="FP32">
					<dim>-1</dim>
					<dim>192</dim>
					<dim>-1</dim>
				</port>
				<port id="1" precision="FP32">
					<dim>192</dim>
					<dim>192</dim>
					<dim>1</dim>
				</port>
			</input>
			<output>
				<port id="2" precision="FP32">
					<dim>-1</dim>
					<dim>192</dim>
					<dim>-1</dim>
				</port>
			</output>
		</layer>
		<layer id="294" name="__module.model.enc_p.encoder.attn_layers.0.conv_o/aten::_convolution/Reshape" type="Const" version="opset1">
			<data element_type="f32" shape="1, 192, 1" offset="553393" size="768" />
			<output>
				<port id="0" precision="FP32">
					<dim>1</dim>
					<dim>192</dim>
					<dim>1</dim>
				</port>
			</output>
		</layer>
		<layer id="295" name="__module.model.enc_p.encoder.attn_layers.0.conv_o/aten::_convolution/Add" type="Add" version="opset1">
			<data auto_broadcast="numpy" />
			<input>
				<port id="0" precision="FP32">
					<dim>-1</dim>
					<dim>192</dim>
					<dim>-1</dim>
				</port>
				<port id="1" precision="FP32">
					<dim>1</dim>
					<dim>192</dim>
					<dim>1</dim>
				</port>
			</input>
			<output>
				<port id="2" precision="FP32" names="463,input.17">
					<dim>-1</dim>
					<dim>192</dim>
					<dim>-1</dim>
				</port>
			</output>
		</layer>
		<layer id="296" name="__module.model.enc_p.encoder/aten::add/Add" type="Add" version="opset1">
			<data auto_broadcast="numpy" />
			<input>
				<port id="0" precision="FP32">
					<dim>-1</dim>
					<dim>192</dim>
					<dim>-1</dim>
				</port>
				<port id="1" precision="FP32">
					<dim>-1</dim>
					<dim>192</dim>
					<dim>-1</dim>
				</port>
			</input>
			<output>
				<port id="2" precision="FP32" names="465,x.21">
					<dim>-1</dim>
					<dim>192</dim>
					<dim>-1</dim>
				</port>
			</output>
		</layer>
		<layer id="297" name="__module.model.enc_p.encoder.norm_layers_1.0/aten::transpose/Constant" type="Const" version="opset1">
			<data element_type="i32" shape="3" offset="245341" size="12" />
			<output>
				<port id="0" precision="I32">
					<dim>3</dim>
				</port>
			</output>
		</layer>
		<layer id="298" name="__module.model.enc_p.encoder.norm_layers_1.0/aten::transpose/Transpose" type="Transpose" version="opset1">
			<input>
				<port id="0" precision="FP32">
					<dim>-1</dim>
					<dim>192</dim>
					<dim>-1</dim>
				</port>
				<port id="1" precision="I32">
					<dim>3</dim>
				</port>
			</input>
			<output>
				<port id="2" precision="FP32" names="468,input.19">
					<dim>-1</dim>
					<dim>-1</dim>
					<dim>192</dim>
				</port>
			</output>
		</layer>
		<layer id="299" name="__module.model.enc_p.encoder.norm_layers_1.0/aten::layer_norm/Multiply" type="Const" version="opset1">
			<data element_type="i32" shape="1" offset="554161" size="4" />
			<output>
				<port id="0" precision="I32">
					<dim>1</dim>
				</port>
			</output>
		</layer>
		<layer id="300" name="__module.model.enc_p.encoder.norm_layers_1.0/aten::layer_norm/MVN" type="MVN" version="opset6">
			<data eps="9.9999997473787516e-06" normalize_variance="true" eps_mode="INSIDE_SQRT" />
			<input>
				<port id="0" precision="FP32">
					<dim>-1</dim>
					<dim>-1</dim>
					<dim>192</dim>
				</port>
				<port id="1" precision="I32">
					<dim>1</dim>
				</port>
			</input>
			<output>
				<port id="2" precision="FP32">
					<dim>-1</dim>
					<dim>-1</dim>
					<dim>192</dim>
				</port>
			</output>
		</layer>
		<layer id="301" name="Constant_556874" type="Const" version="opset1">
			<data element_type="f32" shape="1, 1, 192" offset="554165" size="768" />
			<output>
				<port id="0" precision="FP32">
					<dim>1</dim>
					<dim>1</dim>
					<dim>192</dim>
				</port>
			</output>
		</layer>
		<layer id="302" name="__module.model.enc_p.encoder.norm_layers_1.0/aten::layer_norm/Multiply_1" type="Multiply" version="opset1">
			<data auto_broadcast="numpy" />
			<input>
				<port id="0" precision="FP32">
					<dim>-1</dim>
					<dim>-1</dim>
					<dim>192</dim>
				</port>
				<port id="1" precision="FP32">
					<dim>1</dim>
					<dim>1</dim>
					<dim>192</dim>
				</port>
			</input>
			<output>
				<port id="2" precision="FP32">
					<dim>-1</dim>
					<dim>-1</dim>
					<dim>192</dim>
				</port>
			</output>
		</layer>
		<layer id="303" name="Constant_556875" type="Const" version="opset1">
			<data element_type="f32" shape="1, 1, 192" offset="554933" size="768" />
			<output>
				<port id="0" precision="FP32">
					<dim>1</dim>
					<dim>1</dim>
					<dim>192</dim>
				</port>
			</output>
		</layer>
		<layer id="304" name="__module.model.enc_p.encoder.norm_layers_1.0/aten::layer_norm/Add" type="Add" version="opset1">
			<data auto_broadcast="numpy" />
			<input>
				<port id="0" precision="FP32">
					<dim>-1</dim>
					<dim>-1</dim>
					<dim>192</dim>
				</port>
				<port id="1" precision="FP32">
					<dim>1</dim>
					<dim>1</dim>
					<dim>192</dim>
				</port>
			</input>
			<output>
				<port id="2" precision="FP32" names="470,x.23">
					<dim>-1</dim>
					<dim>-1</dim>
					<dim>192</dim>
				</port>
			</output>
		</layer>
		<layer id="305" name="__module.model.enc_p.encoder.norm_layers_1.0/aten::transpose/Constant_1" type="Const" version="opset1">
			<data element_type="i32" shape="3" offset="245341" size="12" />
			<output>
				<port id="0" precision="I32">
					<dim>3</dim>
				</port>
			</output>
		</layer>
		<layer id="306" name="__module.model.enc_p.encoder.norm_layers_1.0/aten::transpose/Transpose_1" type="Transpose" version="opset1">
			<input>
				<port id="0" precision="FP32">
					<dim>-1</dim>
					<dim>-1</dim>
					<dim>192</dim>
				</port>
				<port id="1" precision="I32">
					<dim>3</dim>
				</port>
			</input>
			<output>
				<port id="2" precision="FP32" names="471,x.25">
					<dim>-1</dim>
					<dim>192</dim>
					<dim>-1</dim>
				</port>
			</output>
		</layer>
		<layer id="307" name="__module.model.enc_p.encoder.ffn_layers.0/aten::mul/Multiply" type="Multiply" version="opset1">
			<data auto_broadcast="numpy" />
			<input>
				<port id="0" precision="FP32">
					<dim>-1</dim>
					<dim>192</dim>
					<dim>-1</dim>
				</port>
				<port id="1" precision="FP32">
					<dim>-1</dim>
					<dim>1</dim>
					<dim>-1</dim>
				</port>
			</input>
			<output>
				<port id="2" precision="FP32" names="474,input.21">
					<dim>-1</dim>
					<dim>192</dim>
					<dim>-1</dim>
				</port>
			</output>
		</layer>
		<layer id="308" name="self.model.enc_p.encoder.ffn_layers.0.conv_1.weight" type="Const" version="opset1">
			<data element_type="u8" shape="768, 192, 3" offset="555701" size="442368" />
			<output>
				<port id="0" precision="U8">
					<dim>768</dim>
					<dim>192</dim>
					<dim>3</dim>
				</port>
			</output>
		</layer>
		<layer id="309" name="Convert_772581" type="Convert" version="opset1">
			<data destination_type="f16" />
			<input>
				<port id="0" precision="U8">
					<dim>768</dim>
					<dim>192</dim>
					<dim>3</dim>
				</port>
			</input>
			<output>
				<port id="1" precision="FP16">
					<dim>768</dim>
					<dim>192</dim>
					<dim>3</dim>
				</port>
			</output>
		</layer>
		<layer id="310" name="self.model.enc_p.encoder.ffn_layers.0.conv_1.weight/zero_point" type="Const" version="opset1">
			<data element_type="u8" shape="768, 1, 1" offset="998069" size="768" />
			<output>
				<port id="0" precision="U8">
					<dim>768</dim>
					<dim>1</dim>
					<dim>1</dim>
				</port>
			</output>
		</layer>
		<layer id="311" name="Convert_772584" type="Convert" version="opset1">
			<data destination_type="f16" />
			<input>
				<port id="0" precision="U8">
					<dim>768</dim>
					<dim>1</dim>
					<dim>1</dim>
				</port>
			</input>
			<output>
				<port id="1" precision="FP16">
					<dim>768</dim>
					<dim>1</dim>
					<dim>1</dim>
				</port>
			</output>
		</layer>
		<layer id="312" name="self.model.enc_p.encoder.ffn_layers.0.conv_1.weight/zero_point/subtract" type="Subtract" version="opset1">
			<data auto_broadcast="numpy" />
			<input>
				<port id="0" precision="FP16">
					<dim>768</dim>
					<dim>192</dim>
					<dim>3</dim>
				</port>
				<port id="1" precision="FP16">
					<dim>768</dim>
					<dim>1</dim>
					<dim>1</dim>
				</port>
			</input>
			<output>
				<port id="2" precision="FP16">
					<dim>768</dim>
					<dim>192</dim>
					<dim>3</dim>
				</port>
			</output>
		</layer>
		<layer id="313" name="self.model.enc_p.encoder.ffn_layers.0.conv_1.weight/scale" type="Const" version="opset1">
			<data element_type="f16" shape="768, 1, 1" offset="998837" size="1536" />
			<output>
				<port id="0" precision="FP16">
					<dim>768</dim>
					<dim>1</dim>
					<dim>1</dim>
				</port>
			</output>
		</layer>
		<layer id="314" name="self.model.enc_p.encoder.ffn_layers.0.conv_1.weight/fq_weights_1" type="Multiply" version="opset1">
			<data auto_broadcast="numpy" />
			<input>
				<port id="0" precision="FP16">
					<dim>768</dim>
					<dim>192</dim>
					<dim>3</dim>
				</port>
				<port id="1" precision="FP16">
					<dim>768</dim>
					<dim>1</dim>
					<dim>1</dim>
				</port>
			</input>
			<output>
				<port id="2" precision="FP16">
					<dim>768</dim>
					<dim>192</dim>
					<dim>3</dim>
				</port>
			</output>
		</layer>
		<layer id="315" name="self.model.enc_p.encoder.ffn_layers.0.conv_1.weight/fq_weights_1/convert" type="Convert" version="opset1">
			<data destination_type="f32" />
			<input>
				<port id="0" precision="FP16">
					<dim>768</dim>
					<dim>192</dim>
					<dim>3</dim>
				</port>
			</input>
			<output>
				<port id="1" precision="FP32">
					<dim>768</dim>
					<dim>192</dim>
					<dim>3</dim>
				</port>
			</output>
		</layer>
		<layer id="316" name="__module.model.enc_p.encoder.ffn_layers.0.conv_1/aten::_convolution/Convolution" type="Convolution" version="opset1">
			<data strides="1" dilations="1" pads_begin="1" pads_end="1" auto_pad="explicit" />
			<input>
				<port id="0" precision="FP32">
					<dim>-1</dim>
					<dim>192</dim>
					<dim>-1</dim>
				</port>
				<port id="1" precision="FP32">
					<dim>768</dim>
					<dim>192</dim>
					<dim>3</dim>
				</port>
			</input>
			<output>
				<port id="2" precision="FP32">
					<dim>-1</dim>
					<dim>768</dim>
					<dim>-1</dim>
				</port>
			</output>
		</layer>
		<layer id="317" name="__module.model.enc_p.encoder.ffn_layers.0.conv_1/aten::_convolution/Reshape" type="Const" version="opset1">
			<data element_type="f32" shape="1, 768, 1" offset="1000373" size="3072" />
			<output>
				<port id="0" precision="FP32">
					<dim>1</dim>
					<dim>768</dim>
					<dim>1</dim>
				</port>
			</output>
		</layer>
		<layer id="318" name="__module.model.enc_p.encoder.ffn_layers.0.conv_1/aten::_convolution/Add" type="Add" version="opset1">
			<data auto_broadcast="numpy" />
			<input>
				<port id="0" precision="FP32">
					<dim>-1</dim>
					<dim>768</dim>
					<dim>-1</dim>
				</port>
				<port id="1" precision="FP32">
					<dim>1</dim>
					<dim>768</dim>
					<dim>1</dim>
				</port>
			</input>
			<output>
				<port id="2" precision="FP32" names="483,x.27">
					<dim>-1</dim>
					<dim>768</dim>
					<dim>-1</dim>
				</port>
			</output>
		</layer>
		<layer id="319" name="__module.model.enc_p.encoder.ffn_layers.0/aten::relu/Relu" type="ReLU" version="opset1">
			<input>
				<port id="0" precision="FP32">
					<dim>-1</dim>
					<dim>768</dim>
					<dim>-1</dim>
				</port>
			</input>
			<output>
				<port id="1" precision="FP32" names="484,input.25">
					<dim>-1</dim>
					<dim>768</dim>
					<dim>-1</dim>
				</port>
			</output>
		</layer>
		<layer id="320" name="__module.model.enc_p.encoder.ffn_layers.0/aten::mul/Multiply_1" type="Multiply" version="opset1">
			<data auto_broadcast="numpy" />
			<input>
				<port id="0" precision="FP32">
					<dim>-1</dim>
					<dim>768</dim>
					<dim>-1</dim>
				</port>
				<port id="1" precision="FP32">
					<dim>-1</dim>
					<dim>1</dim>
					<dim>-1</dim>
				</port>
			</input>
			<output>
				<port id="2" precision="FP32" names="486,input.27">
					<dim>-1</dim>
					<dim>768</dim>
					<dim>-1</dim>
				</port>
			</output>
		</layer>
		<layer id="321" name="self.model.enc_p.encoder.ffn_layers.0.conv_2.weight" type="Const" version="opset1">
			<data element_type="u8" shape="192, 768, 3" offset="1003445" size="442368" />
			<output>
				<port id="0" precision="U8">
					<dim>192</dim>
					<dim>768</dim>
					<dim>3</dim>
				</port>
			</output>
		</layer>
		<layer id="322" name="Convert_776567" type="Convert" version="opset1">
			<data destination_type="f16" />
			<input>
				<port id="0" precision="U8">
					<dim>192</dim>
					<dim>768</dim>
					<dim>3</dim>
				</port>
			</input>
			<output>
				<port id="1" precision="FP16">
					<dim>192</dim>
					<dim>768</dim>
					<dim>3</dim>
				</port>
			</output>
		</layer>
		<layer id="323" name="self.model.enc_p.encoder.ffn_layers.0.conv_2.weight/zero_point" type="Const" version="opset1">
			<data element_type="u8" shape="192, 1, 1" offset="1445813" size="192" />
			<output>
				<port id="0" precision="U8">
					<dim>192</dim>
					<dim>1</dim>
					<dim>1</dim>
				</port>
			</output>
		</layer>
		<layer id="324" name="Convert_776570" type="Convert" version="opset1">
			<data destination_type="f16" />
			<input>
				<port id="0" precision="U8">
					<dim>192</dim>
					<dim>1</dim>
					<dim>1</dim>
				</port>
			</input>
			<output>
				<port id="1" precision="FP16">
					<dim>192</dim>
					<dim>1</dim>
					<dim>1</dim>
				</port>
			</output>
		</layer>
		<layer id="325" name="self.model.enc_p.encoder.ffn_layers.0.conv_2.weight/zero_point/subtract" type="Subtract" version="opset1">
			<data auto_broadcast="numpy" />
			<input>
				<port id="0" precision="FP16">
					<dim>192</dim>
					<dim>768</dim>
					<dim>3</dim>
				</port>
				<port id="1" precision="FP16">
					<dim>192</dim>
					<dim>1</dim>
					<dim>1</dim>
				</port>
			</input>
			<output>
				<port id="2" precision="FP16">
					<dim>192</dim>
					<dim>768</dim>
					<dim>3</dim>
				</port>
			</output>
		</layer>
		<layer id="326" name="self.model.enc_p.encoder.ffn_layers.0.conv_2.weight/scale" type="Const" version="opset1">
			<data element_type="f16" shape="192, 1, 1" offset="1446005" size="384" />
			<output>
				<port id="0" precision="FP16">
					<dim>192</dim>
					<dim>1</dim>
					<dim>1</dim>
				</port>
			</output>
		</layer>
		<layer id="327" name="self.model.enc_p.encoder.ffn_layers.0.conv_2.weight/fq_weights_1" type="Multiply" version="opset1">
			<data auto_broadcast="numpy" />
			<input>
				<port id="0" precision="FP16">
					<dim>192</dim>
					<dim>768</dim>
					<dim>3</dim>
				</port>
				<port id="1" precision="FP16">
					<dim>192</dim>
					<dim>1</dim>
					<dim>1</dim>
				</port>
			</input>
			<output>
				<port id="2" precision="FP16">
					<dim>192</dim>
					<dim>768</dim>
					<dim>3</dim>
				</port>
			</output>
		</layer>
		<layer id="328" name="self.model.enc_p.encoder.ffn_layers.0.conv_2.weight/fq_weights_1/convert" type="Convert" version="opset1">
			<data destination_type="f32" />
			<input>
				<port id="0" precision="FP16">
					<dim>192</dim>
					<dim>768</dim>
					<dim>3</dim>
				</port>
			</input>
			<output>
				<port id="1" precision="FP32">
					<dim>192</dim>
					<dim>768</dim>
					<dim>3</dim>
				</port>
			</output>
		</layer>
		<layer id="329" name="__module.model.enc_p.encoder.ffn_layers.0.conv_2/aten::_convolution/Convolution" type="Convolution" version="opset1">
			<data strides="1" dilations="1" pads_begin="1" pads_end="1" auto_pad="explicit" />
			<input>
				<port id="0" precision="FP32">
					<dim>-1</dim>
					<dim>768</dim>
					<dim>-1</dim>
				</port>
				<port id="1" precision="FP32">
					<dim>192</dim>
					<dim>768</dim>
					<dim>3</dim>
				</port>
			</input>
			<output>
				<port id="2" precision="FP32">
					<dim>-1</dim>
					<dim>192</dim>
					<dim>-1</dim>
				</port>
			</output>
		</layer>
		<layer id="330" name="__module.model.enc_p.encoder.ffn_layers.0.conv_2/aten::_convolution/Reshape" type="Const" version="opset1">
			<data element_type="f32" shape="1, 192, 1" offset="1446389" size="768" />
			<output>
				<port id="0" precision="FP32">
					<dim>1</dim>
					<dim>192</dim>
					<dim>1</dim>
				</port>
			</output>
		</layer>
		<layer id="331" name="__module.model.enc_p.encoder.ffn_layers.0.conv_2/aten::_convolution/Add" type="Add" version="opset1">
			<data auto_broadcast="numpy" />
			<input>
				<port id="0" precision="FP32">
					<dim>-1</dim>
					<dim>192</dim>
					<dim>-1</dim>
				</port>
				<port id="1" precision="FP32">
					<dim>1</dim>
					<dim>192</dim>
					<dim>1</dim>
				</port>
			</input>
			<output>
				<port id="2" precision="FP32" names="495,x.31">
					<dim>-1</dim>
					<dim>192</dim>
					<dim>-1</dim>
				</port>
			</output>
		</layer>
		<layer id="332" name="__module.model.enc_p.encoder.ffn_layers.0/aten::mul/Multiply_2" type="Multiply" version="opset1">
			<data auto_broadcast="numpy" />
			<input>
				<port id="0" precision="FP32">
					<dim>-1</dim>
					<dim>192</dim>
					<dim>-1</dim>
				</port>
				<port id="1" precision="FP32">
					<dim>-1</dim>
					<dim>1</dim>
					<dim>-1</dim>
				</port>
			</input>
			<output>
				<port id="2" precision="FP32" names="496,input.31">
					<dim>-1</dim>
					<dim>192</dim>
					<dim>-1</dim>
				</port>
			</output>
		</layer>
		<layer id="333" name="__module.model.enc_p.encoder/aten::add/Add_1" type="Add" version="opset1">
			<data auto_broadcast="numpy" />
			<input>
				<port id="0" precision="FP32">
					<dim>-1</dim>
					<dim>192</dim>
					<dim>-1</dim>
				</port>
				<port id="1" precision="FP32">
					<dim>-1</dim>
					<dim>192</dim>
					<dim>-1</dim>
				</port>
			</input>
			<output>
				<port id="2" precision="FP32" names="498,x.33">
					<dim>-1</dim>
					<dim>192</dim>
					<dim>-1</dim>
				</port>
			</output>
		</layer>
		<layer id="334" name="__module.model.enc_p.encoder.norm_layers_2.0/aten::transpose/Constant" type="Const" version="opset1">
			<data element_type="i32" shape="3" offset="245341" size="12" />
			<output>
				<port id="0" precision="I32">
					<dim>3</dim>
				</port>
			</output>
		</layer>
		<layer id="335" name="__module.model.enc_p.encoder.norm_layers_2.0/aten::transpose/Transpose" type="Transpose" version="opset1">
			<input>
				<port id="0" precision="FP32">
					<dim>-1</dim>
					<dim>192</dim>
					<dim>-1</dim>
				</port>
				<port id="1" precision="I32">
					<dim>3</dim>
				</port>
			</input>
			<output>
				<port id="2" precision="FP32" names="501,input.33">
					<dim>-1</dim>
					<dim>-1</dim>
					<dim>192</dim>
				</port>
			</output>
		</layer>
		<layer id="336" name="__module.model.enc_p.encoder.norm_layers_2.0/aten::layer_norm/Multiply" type="Const" version="opset1">
			<data element_type="i32" shape="1" offset="554161" size="4" />
			<output>
				<port id="0" precision="I32">
					<dim>1</dim>
				</port>
			</output>
		</layer>
		<layer id="337" name="__module.model.enc_p.encoder.norm_layers_2.0/aten::layer_norm/MVN" type="MVN" version="opset6">
			<data eps="9.9999997473787516e-06" normalize_variance="true" eps_mode="INSIDE_SQRT" />
			<input>
				<port id="0" precision="FP32">
					<dim>-1</dim>
					<dim>-1</dim>
					<dim>192</dim>
				</port>
				<port id="1" precision="I32">
					<dim>1</dim>
				</port>
			</input>
			<output>
				<port id="2" precision="FP32">
					<dim>-1</dim>
					<dim>-1</dim>
					<dim>192</dim>
				</port>
			</output>
		</layer>
		<layer id="338" name="Constant_556876" type="Const" version="opset1">
			<data element_type="f32" shape="1, 1, 192" offset="1447157" size="768" />
			<output>
				<port id="0" precision="FP32">
					<dim>1</dim>
					<dim>1</dim>
					<dim>192</dim>
				</port>
			</output>
		</layer>
		<layer id="339" name="__module.model.enc_p.encoder.norm_layers_2.0/aten::layer_norm/Multiply_1" type="Multiply" version="opset1">
			<data auto_broadcast="numpy" />
			<input>
				<port id="0" precision="FP32">
					<dim>-1</dim>
					<dim>-1</dim>
					<dim>192</dim>
				</port>
				<port id="1" precision="FP32">
					<dim>1</dim>
					<dim>1</dim>
					<dim>192</dim>
				</port>
			</input>
			<output>
				<port id="2" precision="FP32">
					<dim>-1</dim>
					<dim>-1</dim>
					<dim>192</dim>
				</port>
			</output>
		</layer>
		<layer id="340" name="Constant_556877" type="Const" version="opset1">
			<data element_type="f32" shape="1, 1, 192" offset="1447925" size="768" />
			<output>
				<port id="0" precision="FP32">
					<dim>1</dim>
					<dim>1</dim>
					<dim>192</dim>
				</port>
			</output>
		</layer>
		<layer id="341" name="__module.model.enc_p.encoder.norm_layers_2.0/aten::layer_norm/Add" type="Add" version="opset1">
			<data auto_broadcast="numpy" />
			<input>
				<port id="0" precision="FP32">
					<dim>-1</dim>
					<dim>-1</dim>
					<dim>192</dim>
				</port>
				<port id="1" precision="FP32">
					<dim>1</dim>
					<dim>1</dim>
					<dim>192</dim>
				</port>
			</input>
			<output>
				<port id="2" precision="FP32" names="503,x.35">
					<dim>-1</dim>
					<dim>-1</dim>
					<dim>192</dim>
				</port>
			</output>
		</layer>
		<layer id="342" name="__module.model.enc_p.encoder.norm_layers_2.0/aten::transpose/Constant_1" type="Const" version="opset1">
			<data element_type="i32" shape="3" offset="245341" size="12" />
			<output>
				<port id="0" precision="I32">
					<dim>3</dim>
				</port>
			</output>
		</layer>
		<layer id="343" name="__module.model.enc_p.encoder.norm_layers_2.0/aten::transpose/Transpose_1" type="Transpose" version="opset1">
			<input>
				<port id="0" precision="FP32">
					<dim>-1</dim>
					<dim>-1</dim>
					<dim>192</dim>
				</port>
				<port id="1" precision="I32">
					<dim>3</dim>
				</port>
			</input>
			<output>
				<port id="2" precision="FP32" names="504,input.35">
					<dim>-1</dim>
					<dim>192</dim>
					<dim>-1</dim>
				</port>
			</output>
		</layer>
		<layer id="344" name="self.model.enc_p.encoder.attn_layers.1.conv_q.weight" type="Const" version="opset1">
			<data element_type="u8" shape="192, 192, 1" offset="1448693" size="36864" />
			<output>
				<port id="0" precision="U8">
					<dim>192</dim>
					<dim>192</dim>
					<dim>1</dim>
				</port>
			</output>
		</layer>
		<layer id="345" name="Convert_1015583" type="Convert" version="opset1">
			<data destination_type="f16" />
			<input>
				<port id="0" precision="U8">
					<dim>192</dim>
					<dim>192</dim>
					<dim>1</dim>
				</port>
			</input>
			<output>
				<port id="1" precision="FP16">
					<dim>192</dim>
					<dim>192</dim>
					<dim>1</dim>
				</port>
			</output>
		</layer>
		<layer id="346" name="self.model.enc_p.encoder.attn_layers.1.conv_q.weight/zero_point" type="Const" version="opset1">
			<data element_type="u8" shape="192, 1, 1" offset="1485557" size="192" />
			<output>
				<port id="0" precision="U8">
					<dim>192</dim>
					<dim>1</dim>
					<dim>1</dim>
				</port>
			</output>
		</layer>
		<layer id="347" name="Convert_1015586" type="Convert" version="opset1">
			<data destination_type="f16" />
			<input>
				<port id="0" precision="U8">
					<dim>192</dim>
					<dim>1</dim>
					<dim>1</dim>
				</port>
			</input>
			<output>
				<port id="1" precision="FP16">
					<dim>192</dim>
					<dim>1</dim>
					<dim>1</dim>
				</port>
			</output>
		</layer>
		<layer id="348" name="self.model.enc_p.encoder.attn_layers.1.conv_q.weight/zero_point/subtract" type="Subtract" version="opset1">
			<data auto_broadcast="numpy" />
			<input>
				<port id="0" precision="FP16">
					<dim>192</dim>
					<dim>192</dim>
					<dim>1</dim>
				</port>
				<port id="1" precision="FP16">
					<dim>192</dim>
					<dim>1</dim>
					<dim>1</dim>
				</port>
			</input>
			<output>
				<port id="2" precision="FP16">
					<dim>192</dim>
					<dim>192</dim>
					<dim>1</dim>
				</port>
			</output>
		</layer>
		<layer id="349" name="self.model.enc_p.encoder.attn_layers.1.conv_q.weight/scale" type="Const" version="opset1">
			<data element_type="f16" shape="192, 1, 1" offset="1485749" size="384" />
			<output>
				<port id="0" precision="FP16">
					<dim>192</dim>
					<dim>1</dim>
					<dim>1</dim>
				</port>
			</output>
		</layer>
		<layer id="350" name="self.model.enc_p.encoder.attn_layers.1.conv_q.weight/fq_weights_1" type="Multiply" version="opset1">
			<data auto_broadcast="numpy" />
			<input>
				<port id="0" precision="FP16">
					<dim>192</dim>
					<dim>192</dim>
					<dim>1</dim>
				</port>
				<port id="1" precision="FP16">
					<dim>192</dim>
					<dim>1</dim>
					<dim>1</dim>
				</port>
			</input>
			<output>
				<port id="2" precision="FP16">
					<dim>192</dim>
					<dim>192</dim>
					<dim>1</dim>
				</port>
			</output>
		</layer>
		<layer id="351" name="self.model.enc_p.encoder.attn_layers.1.conv_q.weight/fq_weights_1/convert" type="Convert" version="opset1">
			<data destination_type="f32" />
			<input>
				<port id="0" precision="FP16">
					<dim>192</dim>
					<dim>192</dim>
					<dim>1</dim>
				</port>
			</input>
			<output>
				<port id="1" precision="FP32">
					<dim>192</dim>
					<dim>192</dim>
					<dim>1</dim>
				</port>
			</output>
		</layer>
		<layer id="352" name="__module.model.enc_p.encoder.attn_layers.1.conv_q/aten::_convolution/Convolution" type="Convolution" version="opset1">
			<data strides="1" dilations="1" pads_begin="0" pads_end="0" auto_pad="explicit" />
			<input>
				<port id="0" precision="FP32">
					<dim>-1</dim>
					<dim>192</dim>
					<dim>-1</dim>
				</port>
				<port id="1" precision="FP32">
					<dim>192</dim>
					<dim>192</dim>
					<dim>1</dim>
				</port>
			</input>
			<output>
				<port id="2" precision="FP32">
					<dim>-1</dim>
					<dim>192</dim>
					<dim>-1</dim>
				</port>
			</output>
		</layer>
		<layer id="353" name="__module.model.enc_p.encoder.attn_layers.1.conv_q/aten::_convolution/Reshape" type="Const" version="opset1">
			<data element_type="f32" shape="1, 192, 1" offset="1486133" size="768" />
			<output>
				<port id="0" precision="FP32">
					<dim>1</dim>
					<dim>192</dim>
					<dim>1</dim>
				</port>
			</output>
		</layer>
		<layer id="354" name="__module.model.enc_p.encoder.attn_layers.1.conv_q/aten::_convolution/Add" type="Add" version="opset1">
			<data auto_broadcast="numpy" />
			<input>
				<port id="0" precision="FP32">
					<dim>-1</dim>
					<dim>192</dim>
					<dim>-1</dim>
				</port>
				<port id="1" precision="FP32">
					<dim>1</dim>
					<dim>192</dim>
					<dim>1</dim>
				</port>
			</input>
			<output>
				<port id="2" precision="FP32" names="517,query.5">
					<dim>-1</dim>
					<dim>192</dim>
					<dim>-1</dim>
				</port>
			</output>
		</layer>
		<layer id="355" name="Constant_582665" type="Const" version="opset1">
			<data element_type="i64" shape="4" offset="432405" size="32" />
			<output>
				<port id="0" precision="I64">
					<dim>4</dim>
				</port>
			</output>
		</layer>
		<layer id="356" name="__module.model.enc_p.encoder.attn_layers.1/aten::view/Reshape" type="Reshape" version="opset1">
			<data special_zero="true" />
			<input>
				<port id="0" precision="FP32">
					<dim>-1</dim>
					<dim>192</dim>
					<dim>-1</dim>
				</port>
				<port id="1" precision="I64">
					<dim>4</dim>
				</port>
			</input>
			<output>
				<port id="2" precision="FP32" names="538">
					<dim>-1</dim>
					<dim>2</dim>
					<dim>96</dim>
					<dim>-1</dim>
				</port>
			</output>
		</layer>
		<layer id="357" name="__module.model.enc_p.encoder.attn_layers.1/aten::transpose/Constant" type="Const" version="opset1">
			<data element_type="i32" shape="4" offset="432437" size="16" />
			<output>
				<port id="0" precision="I32">
					<dim>4</dim>
				</port>
			</output>
		</layer>
		<layer id="358" name="__module.model.enc_p.encoder.attn_layers.1/aten::transpose/Transpose" type="Transpose" version="opset1">
			<input>
				<port id="0" precision="FP32">
					<dim>-1</dim>
					<dim>2</dim>
					<dim>96</dim>
					<dim>-1</dim>
				</port>
				<port id="1" precision="I32">
					<dim>4</dim>
				</port>
			</input>
			<output>
				<port id="2" precision="FP32" names="539,query.7">
					<dim>-1</dim>
					<dim>2</dim>
					<dim>-1</dim>
					<dim>96</dim>
				</port>
			</output>
		</layer>
		<layer id="359" name="Constant_556878" type="Const" version="opset1">
			<data element_type="f32" shape="1, 1, 1, 1" offset="432453" size="4" />
			<output>
				<port id="0" precision="FP32">
					<dim>1</dim>
					<dim>1</dim>
					<dim>1</dim>
					<dim>1</dim>
				</port>
			</output>
		</layer>
		<layer id="360" name="__module.model.enc_p.encoder.attn_layers.1/aten::div/Divide" type="Divide" version="opset1">
			<data auto_broadcast="numpy" m_pythondiv="true" />
			<input>
				<port id="0" precision="FP32">
					<dim>-1</dim>
					<dim>2</dim>
					<dim>-1</dim>
					<dim>96</dim>
				</port>
				<port id="1" precision="FP32">
					<dim>1</dim>
					<dim>1</dim>
					<dim>1</dim>
					<dim>1</dim>
				</port>
			</input>
			<output>
				<port id="2" precision="FP32" names="546,560,x.37">
					<dim>-1</dim>
					<dim>2</dim>
					<dim>-1</dim>
					<dim>96</dim>
				</port>
			</output>
		</layer>
		<layer id="361" name="self.model.enc_p.encoder.attn_layers.1.conv_k.weight" type="Const" version="opset1">
			<data element_type="u8" shape="192, 192, 1" offset="1486901" size="36864" />
			<output>
				<port id="0" precision="U8">
					<dim>192</dim>
					<dim>192</dim>
					<dim>1</dim>
				</port>
			</output>
		</layer>
		<layer id="362" name="Convert_1019569" type="Convert" version="opset1">
			<data destination_type="f16" />
			<input>
				<port id="0" precision="U8">
					<dim>192</dim>
					<dim>192</dim>
					<dim>1</dim>
				</port>
			</input>
			<output>
				<port id="1" precision="FP16">
					<dim>192</dim>
					<dim>192</dim>
					<dim>1</dim>
				</port>
			</output>
		</layer>
		<layer id="363" name="self.model.enc_p.encoder.attn_layers.1.conv_k.weight/zero_point" type="Const" version="opset1">
			<data element_type="u8" shape="192, 1, 1" offset="1523765" size="192" />
			<output>
				<port id="0" precision="U8">
					<dim>192</dim>
					<dim>1</dim>
					<dim>1</dim>
				</port>
			</output>
		</layer>
		<layer id="364" name="Convert_1019572" type="Convert" version="opset1">
			<data destination_type="f16" />
			<input>
				<port id="0" precision="U8">
					<dim>192</dim>
					<dim>1</dim>
					<dim>1</dim>
				</port>
			</input>
			<output>
				<port id="1" precision="FP16">
					<dim>192</dim>
					<dim>1</dim>
					<dim>1</dim>
				</port>
			</output>
		</layer>
		<layer id="365" name="self.model.enc_p.encoder.attn_layers.1.conv_k.weight/zero_point/subtract" type="Subtract" version="opset1">
			<data auto_broadcast="numpy" />
			<input>
				<port id="0" precision="FP16">
					<dim>192</dim>
					<dim>192</dim>
					<dim>1</dim>
				</port>
				<port id="1" precision="FP16">
					<dim>192</dim>
					<dim>1</dim>
					<dim>1</dim>
				</port>
			</input>
			<output>
				<port id="2" precision="FP16">
					<dim>192</dim>
					<dim>192</dim>
					<dim>1</dim>
				</port>
			</output>
		</layer>
		<layer id="366" name="self.model.enc_p.encoder.attn_layers.1.conv_k.weight/scale" type="Const" version="opset1">
			<data element_type="f16" shape="192, 1, 1" offset="1523957" size="384" />
			<output>
				<port id="0" precision="FP16">
					<dim>192</dim>
					<dim>1</dim>
					<dim>1</dim>
				</port>
			</output>
		</layer>
		<layer id="367" name="self.model.enc_p.encoder.attn_layers.1.conv_k.weight/fq_weights_1" type="Multiply" version="opset1">
			<data auto_broadcast="numpy" />
			<input>
				<port id="0" precision="FP16">
					<dim>192</dim>
					<dim>192</dim>
					<dim>1</dim>
				</port>
				<port id="1" precision="FP16">
					<dim>192</dim>
					<dim>1</dim>
					<dim>1</dim>
				</port>
			</input>
			<output>
				<port id="2" precision="FP16">
					<dim>192</dim>
					<dim>192</dim>
					<dim>1</dim>
				</port>
			</output>
		</layer>
		<layer id="368" name="self.model.enc_p.encoder.attn_layers.1.conv_k.weight/fq_weights_1/convert" type="Convert" version="opset1">
			<data destination_type="f32" />
			<input>
				<port id="0" precision="FP16">
					<dim>192</dim>
					<dim>192</dim>
					<dim>1</dim>
				</port>
			</input>
			<output>
				<port id="1" precision="FP32">
					<dim>192</dim>
					<dim>192</dim>
					<dim>1</dim>
				</port>
			</output>
		</layer>
		<layer id="369" name="__module.model.enc_p.encoder.attn_layers.1.conv_k/aten::_convolution/Convolution" type="Convolution" version="opset1">
			<data strides="1" dilations="1" pads_begin="0" pads_end="0" auto_pad="explicit" />
			<input>
				<port id="0" precision="FP32">
					<dim>-1</dim>
					<dim>192</dim>
					<dim>-1</dim>
				</port>
				<port id="1" precision="FP32">
					<dim>192</dim>
					<dim>192</dim>
					<dim>1</dim>
				</port>
			</input>
			<output>
				<port id="2" precision="FP32">
					<dim>-1</dim>
					<dim>192</dim>
					<dim>-1</dim>
				</port>
			</output>
		</layer>
		<layer id="370" name="__module.model.enc_p.encoder.attn_layers.1.conv_k/aten::_convolution/Reshape" type="Const" version="opset1">
			<data element_type="f32" shape="1, 192, 1" offset="1524341" size="768" />
			<output>
				<port id="0" precision="FP32">
					<dim>1</dim>
					<dim>192</dim>
					<dim>1</dim>
				</port>
			</output>
		</layer>
		<layer id="371" name="__module.model.enc_p.encoder.attn_layers.1.conv_k/aten::_convolution/Add" type="Add" version="opset1">
			<data auto_broadcast="numpy" />
			<input>
				<port id="0" precision="FP32">
					<dim>-1</dim>
					<dim>192</dim>
					<dim>-1</dim>
				</port>
				<port id="1" precision="FP32">
					<dim>1</dim>
					<dim>192</dim>
					<dim>1</dim>
				</port>
			</input>
			<output>
				<port id="2" precision="FP32" names="524,key.5">
					<dim>-1</dim>
					<dim>192</dim>
					<dim>-1</dim>
				</port>
			</output>
		</layer>
		<layer id="372" name="Constant_582666" type="Const" version="opset1">
			<data element_type="i64" shape="4" offset="432405" size="32" />
			<output>
				<port id="0" precision="I64">
					<dim>4</dim>
				</port>
			</output>
		</layer>
		<layer id="373" name="__module.model.enc_p.encoder.attn_layers.1/aten::view/Reshape_1" type="Reshape" version="opset1">
			<data special_zero="true" />
			<input>
				<port id="0" precision="FP32">
					<dim>-1</dim>
					<dim>192</dim>
					<dim>-1</dim>
				</port>
				<port id="1" precision="I64">
					<dim>4</dim>
				</port>
			</input>
			<output>
				<port id="2" precision="FP32" names="541">
					<dim>-1</dim>
					<dim>2</dim>
					<dim>96</dim>
					<dim>-1</dim>
				</port>
			</output>
		</layer>
		<layer id="374" name="__module.model.enc_p.encoder.attn_layers.1/aten::matmul/MatMul" type="MatMul" version="opset1">
			<data transpose_a="false" transpose_b="false" />
			<input>
				<port id="0" precision="FP32">
					<dim>-1</dim>
					<dim>2</dim>
					<dim>-1</dim>
					<dim>96</dim>
				</port>
				<port id="1" precision="FP32">
					<dim>-1</dim>
					<dim>2</dim>
					<dim>96</dim>
					<dim>-1</dim>
				</port>
			</input>
			<output>
				<port id="2" precision="FP32" names="548,scores.5">
					<dim>-1</dim>
					<dim>2</dim>
					<dim>-1</dim>
					<dim>-1</dim>
				</port>
			</output>
		</layer>
		<layer id="375" name="self.model.enc_p.encoder.attn_layers.1.emb_rel_k" type="Const" version="opset1">
			<data element_type="f32" shape="1, 9, 96" offset="1525109" size="3456" />
			<output>
				<port id="0" precision="FP32" names="self.model.enc_p.encoder.attn_layers.1.emb_rel_k">
					<dim>1</dim>
					<dim>9</dim>
					<dim>96</dim>
				</port>
			</output>
		</layer>
		<layer id="376" name="ShapeOf_581500" type="ShapeOf" version="opset3">
			<data output_type="i64" />
			<input>
				<port id="0" precision="FP32">
					<dim>-1</dim>
					<dim>192</dim>
					<dim>-1</dim>
				</port>
			</input>
			<output>
				<port id="1" precision="I64">
					<dim>3</dim>
				</port>
			</output>
		</layer>
		<layer id="377" name="Constant_581501" type="Const" version="opset1">
			<data element_type="i64" shape="" offset="394157" size="8" />
			<output>
				<port id="0" precision="I64" />
			</output>
		</layer>
		<layer id="378" name="Constant_581502" type="Const" version="opset1">
			<data element_type="i64" shape="" offset="394165" size="8" />
			<output>
				<port id="0" precision="I64" />
			</output>
		</layer>
		<layer id="379" name="Gather_581503" type="Gather" version="opset8">
			<data batch_dims="0" />
			<input>
				<port id="0" precision="I64">
					<dim>3</dim>
				</port>
				<port id="1" precision="I64" />
				<port id="2" precision="I64" />
			</input>
			<output>
				<port id="3" precision="I64" names="534" />
			</output>
		</layer>
		<layer id="380" name="Constant_581504" type="Const" version="opset1">
			<data element_type="i64" shape="1" offset="394177" size="8" />
			<output>
				<port id="0" precision="I64">
					<dim>1</dim>
				</port>
			</output>
		</layer>
		<layer id="381" name="Reshape_581505" type="Reshape" version="opset1">
			<data special_zero="false" />
			<input>
				<port id="0" precision="I64" />
				<port id="1" precision="I64">
					<dim>1</dim>
				</port>
			</input>
			<output>
				<port id="2" precision="I64">
					<dim>1</dim>
				</port>
			</output>
		</layer>
		<layer id="382" name="Constant_554697" type="Const" version="opset1">
			<data element_type="i64" shape="1" offset="474121" size="8" />
			<output>
				<port id="0" precision="I64">
					<dim>1</dim>
				</port>
			</output>
		</layer>
		<layer id="383" name="__module.model.enc_p.encoder.attn_layers.1/aten::sub/Subtract" type="Add" version="opset1">
			<data auto_broadcast="numpy" />
			<input>
				<port id="0" precision="I64">
					<dim>1</dim>
				</port>
				<port id="1" precision="I64">
					<dim>1</dim>
				</port>
			</input>
			<output>
				<port id="2" precision="I64" names="549,550,551,623,624,625,pad_length.5,pad_length.7">
					<dim>1</dim>
				</port>
			</output>
		</layer>
		<layer id="384" name="Concat_143946" type="Concat" version="opset1">
			<data axis="0" />
			<input>
				<port id="0" precision="I64">
					<dim>1</dim>
				</port>
				<port id="1" precision="I64">
					<dim>1</dim>
				</port>
				<port id="2" precision="I64">
					<dim>1</dim>
				</port>
				<port id="3" precision="I64">
					<dim>1</dim>
				</port>
				<port id="4" precision="I64">
					<dim>1</dim>
				</port>
				<port id="5" precision="I64">
					<dim>1</dim>
				</port>
			</input>
			<output>
				<port id="6" precision="I64">
					<dim>6</dim>
				</port>
			</output>
		</layer>
		<layer id="385" name="__module.model.enc_p.encoder.attn_layers.1/aten::pad/Range" type="Const" version="opset1">
			<data element_type="i32" shape="3" offset="474129" size="12" />
			<output>
				<port id="0" precision="I32">
					<dim>3</dim>
				</port>
			</output>
		</layer>
		<layer id="386" name="Constant_143955" type="Const" version="opset1">
			<data element_type="i32" shape="" offset="0" size="4" />
			<output>
				<port id="0" precision="I32" />
			</output>
		</layer>
		<layer id="387" name="__module.model.enc_p.encoder.attn_layers.1/aten::pad/Gather" type="Gather" version="opset8">
			<data batch_dims="0" />
			<input>
				<port id="0" precision="I64">
					<dim>6</dim>
				</port>
				<port id="1" precision="I32">
					<dim>3</dim>
				</port>
				<port id="2" precision="I32" />
			</input>
			<output>
				<port id="3" precision="I64">
					<dim>3</dim>
				</port>
			</output>
		</layer>
		<layer id="388" name="__module.model.enc_p.encoder.attn_layers.1/aten::pad/Range_4" type="Const" version="opset1">
			<data element_type="i32" shape="3" offset="474141" size="12" />
			<output>
				<port id="0" precision="I32">
					<dim>3</dim>
				</port>
			</output>
		</layer>
		<layer id="389" name="Constant_143973" type="Const" version="opset1">
			<data element_type="i32" shape="" offset="0" size="4" />
			<output>
				<port id="0" precision="I32" />
			</output>
		</layer>
		<layer id="390" name="__module.model.enc_p.encoder.attn_layers.1/aten::pad/Gather_5" type="Gather" version="opset8">
			<data batch_dims="0" />
			<input>
				<port id="0" precision="I64">
					<dim>6</dim>
				</port>
				<port id="1" precision="I32">
					<dim>3</dim>
				</port>
				<port id="2" precision="I32" />
			</input>
			<output>
				<port id="3" precision="I64">
					<dim>3</dim>
				</port>
			</output>
		</layer>
		<layer id="391" name="__module.model.enc_p.encoder.attn_layers.1/aten::pad/ConvertLike_11" type="Const" version="opset1">
			<data element_type="f32" shape="" offset="0" size="4" />
			<output>
				<port id="0" precision="FP32" />
			</output>
		</layer>
		<layer id="392" name="__module.model.enc_p.encoder.attn_layers.1/aten::pad" type="Pad" version="opset1">
			<data pad_mode="constant" />
			<input>
				<port id="0" precision="FP32">
					<dim>1</dim>
					<dim>9</dim>
					<dim>96</dim>
				</port>
				<port id="1" precision="I64">
					<dim>3</dim>
				</port>
				<port id="2" precision="I64">
					<dim>3</dim>
				</port>
				<port id="3" precision="FP32" />
			</input>
			<output>
				<port id="4" precision="FP32" names="557,558,padded_relative_embeddings.5">
					<dim>1</dim>
					<dim>-1</dim>
					<dim>96</dim>
				</port>
			</output>
		</layer>
		<layer id="393" name="Constant_3006" type="Const" version="opset1">
			<data element_type="i64" shape="1" offset="394165" size="8" />
			<output>
				<port id="0" precision="I64">
					<dim>1</dim>
				</port>
			</output>
		</layer>
		<layer id="394" name="__module.model.enc_p.encoder.attn_layers.1/aten::mul/Multiply" type="Multiply" version="opset1">
			<data auto_broadcast="numpy" />
			<input>
				<port id="0" precision="I64" />
				<port id="1" precision="I64" />
			</input>
			<output>
				<port id="2" precision="I64" names="552,553,626,627" />
			</output>
		</layer>
		<layer id="395" name="Constant_554701" type="Const" version="opset1">
…
		<edge from-layer="6862" from-port="2" to-layer="6864" to-port="0" />
		<edge from-layer="6863" from-port="0" to-layer="6864" to-port="1" />
		<edge from-layer="6864" from-port="2" to-layer="6865" to-port="0" />
		<edge from-layer="6865" from-port="2" to-layer="6874" to-port="0" />
		<edge from-layer="6866" from-port="0" to-layer="6867" to-port="0" />
		<edge from-layer="6867" from-port="1" to-layer="6870" to-port="0" />
		<edge from-layer="6868" from-port="0" to-layer="6869" to-port="0" />
		<edge from-layer="6869" from-port="1" to-layer="6870" to-port="1" />
		<edge from-layer="6870" from-port="2" to-layer="6872" to-port="0" />
		<edge from-layer="6871" from-port="0" to-layer="6872" to-port="1" />
		<edge from-layer="6872" from-port="2" to-layer="6873" to-port="0" />
		<edge from-layer="6873" from-port="1" to-layer="6874" to-port="1" />
		<edge from-layer="6874" from-port="2" to-layer="6876" to-port="0" />
		<edge from-layer="6875" from-port="0" to-layer="6876" to-port="1" />
		<edge from-layer="6876" from-port="2" to-layer="6877" to-port="0" />
		<edge from-layer="6877" from-port="2" to-layer="6952" to-port="0" />
		<edge from-layer="6878" from-port="0" to-layer="6879" to-port="0" />
		<edge from-layer="6879" from-port="1" to-layer="6882" to-port="0" />
		<edge from-layer="6880" from-port="0" to-layer="6881" to-port="0" />
		<edge from-layer="6881" from-port="1" to-layer="6882" to-port="1" />
		<edge from-layer="6882" from-port="2" to-layer="6884" to-port="0" />
		<edge from-layer="6883" from-port="0" to-layer="6884" to-port="1" />
		<edge from-layer="6884" from-port="2" to-layer="6885" to-port="0" />
		<edge from-layer="6885" from-port="1" to-layer="6886" to-port="1" />
		<edge from-layer="6886" from-port="2" to-layer="6888" to-port="0" />
		<edge from-layer="6887" from-port="0" to-layer="6888" to-port="1" />
		<edge from-layer="6888" from-port="2" to-layer="6889" to-port="0" />
		<edge from-layer="6889" from-port="2" to-layer="6898" to-port="0" />
		<edge from-layer="6890" from-port="0" to-layer="6891" to-port="0" />
		<edge from-layer="6891" from-port="1" to-layer="6894" to-port="0" />
		<edge from-layer="6892" from-port="0" to-layer="6893" to-port="0" />
		<edge from-layer="6893" from-port="1" to-layer="6894" to-port="1" />
		<edge from-layer="6894" from-port="2" to-layer="6896" to-port="0" />
		<edge from-layer="6895" from-port="0" to-layer="6896" to-port="1" />
		<edge from-layer="6896" from-port="2" to-layer="6897" to-port="0" />
		<edge from-layer="6897" from-port="1" to-layer="6898" to-port="1" />
		<edge from-layer="6898" from-port="2" to-layer="6900" to-port="0" />
		<edge from-layer="6899" from-port="0" to-layer="6900" to-port="1" />
		<edge from-layer="6900" from-port="2" to-layer="6901" to-port="0" />
		<edge from-layer="6901" from-port="2" to-layer="6926" to-port="1" />
		<edge from-layer="6901" from-port="2" to-layer="6902" to-port="0" />
		<edge from-layer="6902" from-port="2" to-layer="6911" to-port="0" />
		<edge from-layer="6903" from-port="0" to-layer="6904" to-port="0" />
		<edge from-layer="6904" from-port="1" to-layer="6907" to-port="0" />
		<edge from-layer="6905" from-port="0" to-layer="6906" to-port="0" />
		<edge from-layer="6906" from-port="1" to-layer="6907" to-port="1" />
		<edge from-layer="6907" from-port="2" to-layer="6909" to-port="0" />
		<edge from-layer="6908" from-port="0" to-layer="6909" to-port="1" />
		<edge from-layer="6909" from-port="2" to-layer="6910" to-port="0" />
		<edge from-layer="6910" from-port="1" to-layer="6911" to-port="1" />
		<edge from-layer="6911" from-port="2" to-layer="6913" to-port="0" />
		<edge from-layer="6912" from-port="0" to-layer="6913" to-port="1" />
		<edge from-layer="6913" from-port="2" to-layer="6914" to-port="0" />
		<edge from-layer="6914" from-port="2" to-layer="6923" to-port="0" />
		<edge from-layer="6915" from-port="0" to-layer="6916" to-port="0" />
		<edge from-layer="6916" from-port="1" to-layer="6919" to-port="0" />
		<edge from-layer="6917" from-port="0" to-layer="6918" to-port="0" />
		<edge from-layer="6918" from-port="1" to-layer="6919" to-port="1" />
		<edge from-layer="6919" from-port="2" to-layer="6921" to-port="0" />
		<edge from-layer="6920" from-port="0" to-layer="6921" to-port="1" />
		<edge from-layer="6921" from-port="2" to-layer="6922" to-port="0" />
		<edge from-layer="6922" from-port="1" to-layer="6923" to-port="1" />
		<edge from-layer="6923" from-port="2" to-layer="6925" to-port="0" />
		<edge from-layer="6924" from-port="0" to-layer="6925" to-port="1" />
		<edge from-layer="6925" from-port="2" to-layer="6926" to-port="0" />
		<edge from-layer="6926" from-port="2" to-layer="6927" to-port="0" />
		<edge from-layer="6926" from-port="2" to-layer="6951" to-port="1" />
		<edge from-layer="6927" from-port="2" to-layer="6936" to-port="0" />
		<edge from-layer="6928" from-port="0" to-layer="6929" to-port="0" />
		<edge from-layer="6929" from-port="1" to-layer="6932" to-port="0" />
		<edge from-layer="6930" from-port="0" to-layer="6931" to-port="0" />
		<edge from-layer="6931" from-port="1" to-layer="6932" to-port="1" />
		<edge from-layer="6932" from-port="2" to-layer="6934" to-port="0" />
		<edge from-layer="6933" from-port="0" to-layer="6934" to-port="1" />
		<edge from-layer="6934" from-port="2" to-layer="6935" to-port="0" />
		<edge from-layer="6935" from-port="1" to-layer="6936" to-port="1" />
		<edge from-layer="6936" from-port="2" to-layer="6938" to-port="0" />
		<edge from-layer="6937" from-port="0" to-layer="6938" to-port="1" />
		<edge from-layer="6938" from-port="2" to-layer="6939" to-port="0" />
		<edge from-layer="6939" from-port="2" to-layer="6948" to-port="0" />
		<edge from-layer="6940" from-port="0" to-layer="6941" to-port="0" />
		<edge from-layer="6941" from-port="1" to-layer="6944" to-port="0" />
		<edge from-layer="6942" from-port="0" to-layer="6943" to-port="0" />
		<edge from-layer="6943" from-port="1" to-layer="6944" to-port="1" />
		<edge from-layer="6944" from-port="2" to-layer="6946" to-port="0" />
		<edge from-layer="6945" from-port="0" to-layer="6946" to-port="1" />
		<edge from-layer="6946" from-port="2" to-layer="6947" to-port="0" />
		<edge from-layer="6947" from-port="1" to-layer="6948" to-port="1" />
		<edge from-layer="6948" from-port="2" to-layer="6950" to-port="0" />
		<edge from-layer="6949" from-port="0" to-layer="6950" to-port="1" />
		<edge from-layer="6950" from-port="2" to-layer="6951" to-port="0" />
		<edge from-layer="6951" from-port="2" to-layer="6952" to-port="1" />
		<edge from-layer="6952" from-port="2" to-layer="7027" to-port="0" />
		<edge from-layer="6953" from-port="0" to-layer="6954" to-port="0" />
		<edge from-layer="6954" from-port="1" to-layer="6957" to-port="0" />
		<edge from-layer="6955" from-port="0" to-layer="6956" to-port="0" />
		<edge from-layer="6956" from-port="1" to-layer="6957" to-port="1" />
		<edge from-layer="6957" from-port="2" to-layer="6959" to-port="0" />
		<edge from-layer="6958" from-port="0" to-layer="6959" to-port="1" />
		<edge from-layer="6959" from-port="2" to-layer="6960" to-port="0" />
		<edge from-layer="6960" from-port="1" to-layer="6961" to-port="1" />
		<edge from-layer="6961" from-port="2" to-layer="6963" to-port="0" />
		<edge from-layer="6962" from-port="0" to-layer="6963" to-port="1" />
		<edge from-layer="6963" from-port="2" to-layer="6964" to-port="0" />
		<edge from-layer="6964" from-port="2" to-layer="6973" to-port="0" />
		<edge from-layer="6965" from-port="0" to-layer="6966" to-port="0" />
		<edge from-layer="6966" from-port="1" to-layer="6969" to-port="0" />
		<edge from-layer="6967" from-port="0" to-layer="6968" to-port="0" />
		<edge from-layer="6968" from-port="1" to-layer="6969" to-port="1" />
		<edge from-layer="6969" from-port="2" to-layer="6971" to-port="0" />
		<edge from-layer="6970" from-port="0" to-layer="6971" to-port="1" />
		<edge from-layer="6971" from-port="2" to-layer="6972" to-port="0" />
		<edge from-layer="6972" from-port="1" to-layer="6973" to-port="1" />
		<edge from-layer="6973" from-port="2" to-layer="6975" to-port="0" />
		<edge from-layer="6974" from-port="0" to-layer="6975" to-port="1" />
		<edge from-layer="6975" from-port="2" to-layer="6976" to-port="0" />
		<edge from-layer="6976" from-port="2" to-layer="6977" to-port="0" />
		<edge from-layer="6976" from-port="2" to-layer="7001" to-port="1" />
		<edge from-layer="6977" from-port="2" to-layer="6986" to-port="0" />
		<edge from-layer="6978" from-port="0" to-layer="6979" to-port="0" />
		<edge from-layer="6979" from-port="1" to-layer="6982" to-port="0" />
		<edge from-layer="6980" from-port="0" to-layer="6981" to-port="0" />
		<edge from-layer="6981" from-port="1" to-layer="6982" to-port="1" />
		<edge from-layer="6982" from-port="2" to-layer="6984" to-port="0" />
		<edge from-layer="6983" from-port="0" to-layer="6984" to-port="1" />
		<edge from-layer="6984" from-port="2" to-layer="6985" to-port="0" />
		<edge from-layer="6985" from-port="1" to-layer="6986" to-port="1" />
		<edge from-layer="6986" from-port="2" to-layer="6988" to-port="0" />
		<edge from-layer="6987" from-port="0" to-layer="6988" to-port="1" />
		<edge from-layer="6988" from-port="2" to-layer="6989" to-port="0" />
		<edge from-layer="6989" from-port="2" to-layer="6998" to-port="0" />
		<edge from-layer="6990" from-port="0" to-layer="6991" to-port="0" />
		<edge from-layer="6991" from-port="1" to-layer="6994" to-port="0" />
		<edge from-layer="6992" from-port="0" to-layer="6993" to-port="0" />
		<edge from-layer="6993" from-port="1" to-layer="6994" to-port="1" />
		<edge from-layer="6994" from-port="2" to-layer="6996" to-port="0" />
		<edge from-layer="6995" from-port="0" to-layer="6996" to-port="1" />
		<edge from-layer="6996" from-port="2" to-layer="6997" to-port="0" />
		<edge from-layer="6997" from-port="1" to-layer="6998" to-port="1" />
		<edge from-layer="6998" from-port="2" to-layer="7000" to-port="0" />
		<edge from-layer="6999" from-port="0" to-layer="7000" to-port="1" />
		<edge from-layer="7000" from-port="2" to-layer="7001" to-port="0" />
		<edge from-layer="7001" from-port="2" to-layer="7026" to-port="1" />
		<edge from-layer="7001" from-port="2" to-layer="7002" to-port="0" />
		<edge from-layer="7002" from-port="2" to-layer="7011" to-port="0" />
		<edge from-layer="7003" from-port="0" to-layer="7004" to-port="0" />
		<edge from-layer="7004" from-port="1" to-layer="7007" to-port="0" />
		<edge from-layer="7005" from-port="0" to-layer="7006" to-port="0" />
		<edge from-layer="7006" from-port="1" to-layer="7007" to-port="1" />
		<edge from-layer="7007" from-port="2" to-layer="7009" to-port="0" />
		<edge from-layer="7008" from-port="0" to-layer="7009" to-port="1" />
		<edge from-layer="7009" from-port="2" to-layer="7010" to-port="0" />
		<edge from-layer="7010" from-port="1" to-layer="7011" to-port="1" />
		<edge from-layer="7011" from-port="2" to-layer="7013" to-port="0" />
		<edge from-layer="7012" from-port="0" to-layer="7013" to-port="1" />
		<edge from-layer="7013" from-port="2" to-layer="7014" to-port="0" />
		<edge from-layer="7014" from-port="2" to-layer="7023" to-port="0" />
		<edge from-layer="7015" from-port="0" to-layer="7016" to-port="0" />
		<edge from-layer="7016" from-port="1" to-layer="7019" to-port="0" />
		<edge from-layer="7017" from-port="0" to-layer="7018" to-port="0" />
		<edge from-layer="7018" from-port="1" to-layer="7019" to-port="1" />
		<edge from-layer="7019" from-port="2" to-layer="7021" to-port="0" />
		<edge from-layer="7020" from-port="0" to-layer="7021" to-port="1" />
		<edge from-layer="7021" from-port="2" to-layer="7022" to-port="0" />
		<edge from-layer="7022" from-port="1" to-layer="7023" to-port="1" />
		<edge from-layer="7023" from-port="2" to-layer="7025" to-port="0" />
		<edge from-layer="7024" from-port="0" to-layer="7025" to-port="1" />
		<edge from-layer="7025" from-port="2" to-layer="7026" to-port="0" />
		<edge from-layer="7026" from-port="2" to-layer="7027" to-port="1" />
		<edge from-layer="7027" from-port="2" to-layer="7029" to-port="0" />
		<edge from-layer="7028" from-port="0" to-layer="7029" to-port="1" />
		<edge from-layer="7029" from-port="2" to-layer="7030" to-port="0" />
		<edge from-layer="7030" from-port="2" to-layer="7039" to-port="0" />
		<edge from-layer="7031" from-port="0" to-layer="7032" to-port="0" />
		<edge from-layer="7032" from-port="1" to-layer="7035" to-port="0" />
		<edge from-layer="7033" from-port="0" to-layer="7034" to-port="0" />
		<edge from-layer="7034" from-port="1" to-layer="7035" to-port="1" />
		<edge from-layer="7035" from-port="2" to-layer="7037" to-port="0" />
		<edge from-layer="7036" from-port="0" to-layer="7037" to-port="1" />
		<edge from-layer="7037" from-port="2" to-layer="7038" to-port="0" />
		<edge from-layer="7038" from-port="1" to-layer="7039" to-port="1" />
		<edge from-layer="7039" from-port="2" to-layer="7041" to-port="0" />
		<edge from-layer="7040" from-port="0" to-layer="7041" to-port="1" />
		<edge from-layer="7041" from-port="2" to-layer="7066" to-port="1" />
		<edge from-layer="7041" from-port="2" to-layer="7215" to-port="1" />
		<edge from-layer="7041" from-port="2" to-layer="7140" to-port="1" />
		<edge from-layer="7041" from-port="2" to-layer="7042" to-port="0" />
		<edge from-layer="7042" from-port="2" to-layer="7200" to-port="0" />
		<edge from-layer="7042" from-port="2" to-layer="7125" to-port="0" />
		<edge from-layer="7042" from-port="2" to-layer="7051" to-port="0" />
		<edge from-layer="7043" from-port="0" to-layer="7044" to-port="0" />
		<edge from-layer="7044" from-port="1" to-layer="7047" to-port="0" />
		<edge from-layer="7045" from-port="0" to-layer="7046" to-port="0" />
		<edge from-layer="7046" from-port="1" to-layer="7047" to-port="1" />
		<edge from-layer="7047" from-port="2" to-layer="7049" to-port="0" />
		<edge from-layer="7048" from-port="0" to-layer="7049" to-port="1" />
		<edge from-layer="7049" from-port="2" to-layer="7050" to-port="0" />
		<edge from-layer="7050" from-port="1" to-layer="7051" to-port="1" />
		<edge from-layer="7051" from-port="2" to-layer="7053" to-port="0" />
		<edge from-layer="7052" from-port="0" to-layer="7053" to-port="1" />
		<edge from-layer="7053" from-port="2" to-layer="7054" to-port="0" />
		<edge from-layer="7054" from-port="2" to-layer="7063" to-port="0" />
		<edge from-layer="7055" from-port="0" to-layer="7056" to-port="0" />
		<edge from-layer="7056" from-port="1" to-layer="7059" to-port="0" />
		<edge from-layer="7057" from-port="0" to-layer="7058" to-port="0" />
		<edge from-layer="7058" from-port="1" to-layer="7059" to-port="1" />
		<edge from-layer="7059" from-port="2" to-layer="7061" to-port="0" />
		<edge from-layer="7060" from-port="0" to-layer="7061" to-port="1" />
		<edge from-layer="7061" from-port="2" to-layer="7062" to-port="0" />
		<edge from-layer="7062" from-port="1" to-layer="7063" to-port="1" />
		<edge from-layer="7063" from-port="2" to-layer="7065" to-port="0" />
		<edge from-layer="7064" from-port="0" to-layer="7065" to-port="1" />
		<edge from-layer="7065" from-port="2" to-layer="7066" to-port="0" />
		<edge from-layer="7066" from-port="2" to-layer="7091" to-port="1" />
		<edge from-layer="7066" from-port="2" to-layer="7067" to-port="0" />
		<edge from-layer="7067" from-port="2" to-layer="7076" to-port="0" />
		<edge from-layer="7068" from-port="0" to-layer="7069" to-port="0" />
		<edge from-layer="7069" from-port="1" to-layer="7072" to-port="0" />
		<edge from-layer="7070" from-port="0" to-layer="7071" to-port="0" />
		<edge from-layer="7071" from-port="1" to-layer="7072" to-port="1" />
		<edge from-layer="7072" from-port="2" to-layer="7074" to-port="0" />
		<edge from-layer="7073" from-port="0" to-layer="7074" to-port="1" />
		<edge from-layer="7074" from-port="2" to-layer="7075" to-port="0" />
		<edge from-layer="7075" from-port="1" to-layer="7076" to-port="1" />
		<edge from-layer="7076" from-port="2" to-layer="7078" to-port="0" />
		<edge from-layer="7077" from-port="0" to-layer="7078" to-port="1" />
		<edge from-layer="7078" from-port="2" to-layer="7079" to-port="0" />
		<edge from-layer="7079" from-port="2" to-layer="7088" to-port="0" />
		<edge from-layer="7080" from-port="0" to-layer="7081" to-port="0" />
		<edge from-layer="7081" from-port="1" to-layer="7084" to-port="0" />
		<edge from-layer="7082" from-port="0" to-layer="7083" to-port="0" />
		<edge from-layer="7083" from-port="1" to-layer="7084" to-port="1" />
		<edge from-layer="7084" from-port="2" to-layer="7086" to-port="0" />
		<edge from-layer="7085" from-port="0" to-layer="7086" to-port="1" />
		<edge from-layer="7086" from-port="2" to-layer="7087" to-port="0" />
		<edge from-layer="7087" from-port="1" to-layer="7088" to-port="1" />
		<edge from-layer="7088" from-port="2" to-layer="7090" to-port="0" />
		<edge from-layer="7089" from-port="0" to-layer="7090" to-port="1" />
		<edge from-layer="7090" from-port="2" to-layer="7091" to-port="0" />
		<edge from-layer="7091" from-port="2" to-layer="7116" to-port="1" />
		<edge from-layer="7091" from-port="2" to-layer="7092" to-port="0" />
		<edge from-layer="7092" from-port="2" to-layer="7101" to-port="0" />
		<edge from-layer="7093" from-port="0" to-layer="7094" to-port="0" />
		<edge from-layer="7094" from-port="1" to-layer="7097" to-port="0" />
		<edge from-layer="7095" from-port="0" to-layer="7096" to-port="0" />
		<edge from-layer="7096" from-port="1" to-layer="7097" to-port="1" />
		<edge from-layer="7097" from-port="2" to-layer="7099" to-port="0" />
		<edge from-layer="7098" from-port="0" to-layer="7099" to-port="1" />
		<edge from-layer="7099" from-port="2" to-layer="7100" to-port="0" />
		<edge from-layer="7100" from-port="1" to-layer="7101" to-port="1" />
		<edge from-layer="7101" from-port="2" to-layer="7103" to-port="0" />
		<edge from-layer="7102" from-port="0" to-layer="7103" to-port="1" />
		<edge from-layer="7103" from-port="2" to-layer="7104" to-port="0" />
		<edge from-layer="7104" from-port="2" to-layer="7113" to-port="0" />
		<edge from-layer="7105" from-port="0" to-layer="7106" to-port="0" />
		<edge from-layer="7106" from-port="1" to-layer="7109" to-port="0" />
		<edge from-layer="7107" from-port="0" to-layer="7108" to-port="0" />
		<edge from-layer="7108" from-port="1" to-layer="7109" to-port="1" />
		<edge from-layer="7109" from-port="2" to-layer="7111" to-port="0" />
		<edge from-layer="7110" from-port="0" to-layer="7111" to-port="1" />
		<edge from-layer="7111" from-port="2" to-layer="7112" to-port="0" />
		<edge from-layer="7112" from-port="1" to-layer="7113" to-port="1" />
		<edge from-layer="7113" from-port="2" to-layer="7115" to-port="0" />
		<edge from-layer="7114" from-port="0" to-layer="7115" to-port="1" />
		<edge from-layer="7115" from-port="2" to-layer="7116" to-port="0" />
		<edge from-layer="7116" from-port="2" to-layer="7191" to-port="0" />
		<edge from-layer="7117" from-port="0" to-layer="7118" to-port="0" />
		<edge from-layer="7118" from-port="1" to-layer="7121" to-port="0" />
		<edge from-layer="7119" from-port="0" to-layer="7120" to-port="0" />
		<edge from-layer="7120" from-port="1" to-layer="7121" to-port="1" />
		<edge from-layer="7121" from-port="2" to-layer="7123" to-port="0" />
		<edge from-layer="7122" from-port="0" to-layer="7123" to-port="1" />
		<edge from-layer="7123" from-port="2" to-layer="7124" to-port="0" />
		<edge from-layer="7124" from-port="1" to-layer="7125" to-port="1" />
		<edge from-layer="7125" from-port="2" to-layer="7127" to-port="0" />
		<edge from-layer="7126" from-port="0" to-layer="7127" to-port="1" />
		<edge from-layer="7127" from-port="2" to-layer="7128" to-port="0" />
		<edge from-layer="7128" from-port="2" to-layer="7137" to-port="0" />
		<edge from-layer="7129" from-port="0" to-layer="7130" to-port="0" />
		<edge from-layer="7130" from-port="1" to-layer="7133" to-port="0" />
		<edge from-layer="7131" from-port="0" to-layer="7132" to-port="0" />
		<edge from-layer="7132" from-port="1" to-layer="7133" to-port="1" />
		<edge from-layer="7133" from-port="2" to-layer="7135" to-port="0" />
		<edge from-layer="7134" from-port="0" to-layer="7135" to-port="1" />
		<edge from-layer="7135" from-port="2" to-layer="7136" to-port="0" />
		<edge from-layer="7136" from-port="1" to-layer="7137" to-port="1" />
		<edge from-layer="7137" from-port="2" to-layer="7139" to-port="0" />
		<edge from-layer="7138" from-port="0" to-layer="7139" to-port="1" />
		<edge from-layer="7139" from-port="2" to-layer="7140" to-port="0" />
		<edge from-layer="7140" from-port="2" to-layer="7165" to-port="1" />
		<edge from-layer="7140" from-port="2" to-layer="7141" to-port="0" />
		<edge from-layer="7141" from-port="2" to-layer="7150" to-port="0" />
		<edge from-layer="7142" from-port="0" to-layer="7143" to-port="0" />
		<edge from-layer="7143" from-port="1" to-layer="7146" to-port="0" />
		<edge from-layer="7144" from-port="0" to-layer="7145" to-port="0" />
		<edge from-layer="7145" from-port="1" to-layer="7146" to-port="1" />
		<edge from-layer="7146" from-port="2" to-layer="7148" to-port="0" />
		<edge from-layer="7147" from-port="0" to-layer="7148" to-port="1" />
		<edge from-layer="7148" from-port="2" to-layer="7149" to-port="0" />
		<edge from-layer="7149" from-port="1" to-layer="7150" to-port="1" />
		<edge from-layer="7150" from-port="2" to-layer="7152" to-port="0" />
		<edge from-layer="7151" from-port="0" to-layer="7152" to-port="1" />
		<edge from-layer="7152" from-port="2" to-layer="7153" to-port="0" />
		<edge from-layer="7153" from-port="2" to-layer="7162" to-port="0" />
		<edge from-layer="7154" from-port="0" to-layer="7155" to-port="0" />
		<edge from-layer="7155" from-port="1" to-layer="7158" to-port="0" />
		<edge from-layer="7156" from-port="0" to-layer="7157" to-port="0" />
		<edge from-layer="7157" from-port="1" to-layer="7158" to-port="1" />
		<edge from-layer="7158" from-port="2" to-layer="7160" to-port="0" />
		<edge from-layer="7159" from-port="0" to-layer="7160" to-port="1" />
		<edge from-layer="7160" from-port="2" to-layer="7161" to-port="0" />
		<edge from-layer="7161" from-port="1" to-layer="7162" to-port="1" />
		<edge from-layer="7162" from-port="2" to-layer="7164" to-port="0" />
		<edge from-layer="7163" from-port="0" to-layer="7164" to-port="1" />
		<edge from-layer="7164" from-port="2" to-layer="7165" to-port="0" />
		<edge from-layer="7165" from-port="2" to-layer="7166" to-port="0" />
		<edge from-layer="7165" from-port="2" to-layer="7190" to-port="1" />
		<edge from-layer="7166" from-port="2" to-layer="7175" to-port="0" />
		<edge from-layer="7167" from-port="0" to-layer="7168" to-port="0" />
		<edge from-layer="7168" from-port="1" to-layer="7171" to-port="0" />
		<edge from-layer="7169" from-port="0" to-layer="7170" to-port="0" />
		<edge from-layer="7170" from-port="1" to-layer="7171" to-port="1" />
		<edge from-layer="7171" from-port="2" to-layer="7173" to-port="0" />
		<edge from-layer="7172" from-port="0" to-layer="7173" to-port="1" />
		<edge from-layer="7173" from-port="2" to-layer="7174" to-port="0" />
		<edge from-layer="7174" from-port="1" to-layer="7175" to-port="1" />
		<edge from-layer="7175" from-port="2" to-layer="7177" to-port="0" />
		<edge from-layer="7176" from-port="0" to-layer="7177" to-port="1" />
		<edge from-layer="7177" from-port="2" to-layer="7178" to-port="0" />
		<edge from-layer="7178" from-port="2" to-layer="7187" to-port="0" />
		<edge from-layer="7179" from-port="0" to-layer="7180" to-port="0" />
		<edge from-layer="7180" from-port="1" to-layer="7183" to-port="0" />
		<edge from-layer="7181" from-port="0" to-layer="7182" to-port="0" />
		<edge from-layer="7182" from-port="1" to-layer="7183" to-port="1" />
		<edge from-layer="7183" from-port="2" to-layer="7185" to-port="0" />
		<edge from-layer="7184" from-port="0" to-layer="7185" to-port="1" />
		<edge from-layer="7185" from-port="2" to-layer="7186" to-port="0" />
		<edge from-layer="7186" from-port="1" to-layer="7187" to-port="1" />
		<edge from-layer="7187" from-port="2" to-layer="7189" to-port="0" />
		<edge from-layer="7188" from-port="0" to-layer="7189" to-port="1" />
		<edge from-layer="7189" from-port="2" to-layer="7190" to-port="0" />
		<edge from-layer="7190" from-port="2" to-layer="7191" to-port="1" />
		<edge from-layer="7191" from-port="2" to-layer="7266" to-port="0" />
		<edge from-layer="7192" from-port="0" to-layer="7193" to-port="0" />
		<edge from-layer="7193" from-port="1" to-layer="7196" to-port="0" />
		<edge from-layer="7194" from-port="0" to-layer="7195" to-port="0" />
		<edge from-layer="7195" from-port="1" to-layer="7196" to-port="1" />
		<edge from-layer="7196" from-port="2" to-layer="7198" to-port="0" />
		<edge from-layer="7197" from-port="0" to-layer="7198" to-port="1" />
		<edge from-layer="7198" from-port="2" to-layer="7199" to-port="0" />
		<edge from-layer="7199" from-port="1" to-layer="7200" to-port="1" />
		<edge from-layer="7200" from-port="2" to-layer="7202" to-port="0" />
		<edge from-layer="7201" from-port="0" to-layer="7202" to-port="1" />
		<edge from-layer="7202" from-port="2" to-layer="7203" to-port="0" />
		<edge from-layer="7203" from-port="2" to-layer="7212" to-port="0" />
		<edge from-layer="7204" from-port="0" to-layer="7205" to-port="0" />
		<edge from-layer="7205" from-port="1" to-layer="7208" to-port="0" />
		<edge from-layer="7206" from-port="0" to-layer="7207" to-port="0" />
		<edge from-layer="7207" from-port="1" to-layer="7208" to-port="1" />
		<edge from-layer="7208" from-port="2" to-layer="7210" to-port="0" />
		<edge from-layer="7209" from-port="0" to-layer="7210" to-port="1" />
		<edge from-layer="7210" from-port="2" to-layer="7211" to-port="0" />
		<edge from-layer="7211" from-port="1" to-layer="7212" to-port="1" />
		<edge from-layer="7212" from-port="2" to-layer="7214" to-port="0" />
		<edge from-layer="7213" from-port="0" to-layer="7214" to-port="1" />
		<edge from-layer="7214" from-port="2" to-layer="7215" to-port="0" />
		<edge from-layer="7215" from-port="2" to-layer="7240" to-port="1" />
		<edge from-layer="7215" from-port="2" to-layer="7216" to-port="0" />
		<edge from-layer="7216" from-port="2" to-layer="7225" to-port="0" />
		<edge from-layer="7217" from-port="0" to-layer="7218" to-port="0" />
		<edge from-layer="7218" from-port="1" to-layer="7221" to-port="0" />
		<edge from-layer="7219" from-port="0" to-layer="7220" to-port="0" />
		<edge from-layer="7220" from-port="1" to-layer="7221" to-port="1" />
		<edge from-layer="7221" from-port="2" to-layer="7223" to-port="0" />
		<edge from-layer="7222" from-port="0" to-layer="7223" to-port="1" />
		<edge from-layer="7223" from-port="2" to-layer="7224" to-port="0" />
		<edge from-layer="7224" from-port="1" to-layer="7225" to-port="1" />
		<edge from-layer="7225" from-port="2" to-layer="7227" to-port="0" />
		<edge from-layer="7226" from-port="0" to-layer="7227" to-port="1" />
		<edge from-layer="7227" from-port="2" to-layer="7228" to-port="0" />
		<edge from-layer="7228" from-port="2" to-layer="7237" to-port="0" />
		<edge from-layer="7229" from-port="0" to-layer="7230" to-port="0" />
		<edge from-layer="7230" from-port="1" to-layer="7233" to-port="0" />
		<edge from-layer="7231" from-port="0" to-layer="7232" to-port="0" />
		<edge from-layer="7232" from-port="1" to-layer="7233" to-port="1" />
		<edge from-layer="7233" from-port="2" to-layer="7235" to-port="0" />
		<edge from-layer="7234" from-port="0" to-layer="7235" to-port="1" />
		<edge from-layer="7235" from-port="2" to-layer="7236" to-port="0" />
		<edge from-layer="7236" from-port="1" to-layer="7237" to-port="1" />
		<edge from-layer="7237" from-port="2" to-layer="7239" to-port="0" />
		<edge from-layer="7238" from-port="0" to-layer="7239" to-port="1" />
		<edge from-layer="7239" from-port="2" to-layer="7240" to-port="0" />
		<edge from-layer="7240" from-port="2" to-layer="7265" to-port="1" />
		<edge from-layer="7240" from-port="2" to-layer="7241" to-port="0" />
		<edge from-layer="7241" from-port="2" to-layer="7250" to-port="0" />
		<edge from-layer="7242" from-port="0" to-layer="7243" to-port="0" />
		<edge from-layer="7243" from-port="1" to-layer="7246" to-port="0" />
		<edge from-layer="7244" from-port="0" to-layer="7245" to-port="0" />
		<edge from-layer="7245" from-port="1" to-layer="7246" to-port="1" />
		<edge from-layer="7246" from-port="2" to-layer="7248" to-port="0" />
		<edge from-layer="7247" from-port="0" to-layer="7248" to-port="1" />
		<edge from-layer="7248" from-port="2" to-layer="7249" to-port="0" />
		<edge from-layer="7249" from-port="1" to-layer="7250" to-port="1" />
		<edge from-layer="7250" from-port="2" to-layer="7252" to-port="0" />
		<edge from-layer="7251" from-port="0" to-layer="7252" to-port="1" />
		<edge from-layer="7252" from-port="2" to-layer="7253" to-port="0" />
		<edge from-layer="7253" from-port="2" to-layer="7262" to-port="0" />
		<edge from-layer="7254" from-port="0" to-layer="7255" to-port="0" />
		<edge from-layer="7255" from-port="1" to-layer="7258" to-port="0" />
		<edge from-layer="7256" from-port="0" to-layer="7257" to-port="0" />
		<edge from-layer="7257" from-port="1" to-layer="7258" to-port="1" />
		<edge from-layer="7258" from-port="2" to-layer="7260" to-port="0" />
		<edge from-layer="7259" from-port="0" to-layer="7260" to-port="1" />
		<edge from-layer="7260" from-port="2" to-layer="7261" to-port="0" />
		<edge from-layer="7261" from-port="1" to-layer="7262" to-port="1" />
		<edge from-layer="7262" from-port="2" to-layer="7264" to-port="0" />
		<edge from-layer="7263" from-port="0" to-layer="7264" to-port="1" />
		<edge from-layer="7264" from-port="2" to-layer="7265" to-port="0" />
		<edge from-layer="7265" from-port="2" to-layer="7266" to-port="1" />
		<edge from-layer="7266" from-port="2" to-layer="7268" to-port="0" />
		<edge from-layer="7267" from-port="0" to-layer="7268" to-port="1" />
		<edge from-layer="7268" from-port="2" to-layer="7269" to-port="0" />
		<edge from-layer="7269" from-port="2" to-layer="7278" to-port="0" />
		<edge from-layer="7270" from-port="0" to-layer="7271" to-port="0" />
		<edge from-layer="7271" from-port="1" to-layer="7274" to-port="0" />
		<edge from-layer="7272" from-port="0" to-layer="7273" to-port="0" />
		<edge from-layer="7273" from-port="1" to-layer="7274" to-port="1" />
		<edge from-layer="7274" from-port="2" to-layer="7276" to-port="0" />
		<edge from-layer="7275" from-port="0" to-layer="7276" to-port="1" />
		<edge from-layer="7276" from-port="2" to-layer="7277" to-port="0" />
		<edge from-layer="7277" from-port="1" to-layer="7278" to-port="1" />
		<edge from-layer="7278" from-port="2" to-layer="7280" to-port="0" />
		<edge from-layer="7279" from-port="0" to-layer="7280" to-port="1" />
		<edge from-layer="7280" from-port="2" to-layer="7281" to-port="0" />
		<edge from-layer="7280" from-port="2" to-layer="7305" to-port="1" />
		<edge from-layer="7280" from-port="2" to-layer="7379" to-port="1" />
		<edge from-layer="7280" from-port="2" to-layer="7454" to-port="1" />
		<edge from-layer="7281" from-port="2" to-layer="7364" to-port="0" />
		<edge from-layer="7281" from-port="2" to-layer="7290" to-port="0" />
		<edge from-layer="7281" from-port="2" to-layer="7439" to-port="0" />
		<edge from-layer="7282" from-port="0" to-layer="7283" to-port="0" />
		<edge from-layer="7283" from-port="1" to-layer="7286" to-port="0" />
		<edge from-layer="7284" from-port="0" to-layer="7285" to-port="0" />
		<edge from-layer="7285" from-port="1" to-layer="7286" to-port="1" />
		<edge from-layer="7286" from-port="2" to-layer="7288" to-port="0" />
		<edge from-layer="7287" from-port="0" to-layer="7288" to-port="1" />
		<edge from-layer="7288" from-port="2" to-layer="7289" to-port="0" />
		<edge from-layer="7289" from-port="1" to-layer="7290" to-port="1" />
		<edge from-layer="7290" from-port="2" to-layer="7292" to-port="0" />
		<edge from-layer="7291" from-port="0" to-layer="7292" to-port="1" />
		<edge from-layer="7292" from-port="2" to-layer="7293" to-port="0" />
		<edge from-layer="7293" from-port="2" to-layer="7302" to-port="0" />
		<edge from-layer="7294" from-port="0" to-layer="7295" to-port="0" />
		<edge from-layer="7295" from-port="1" to-layer="7298" to-port="0" />
		<edge from-layer="7296" from-port="0" to-layer="7297" to-port="0" />
		<edge from-layer="7297" from-port="1" to-layer="7298" to-port="1" />
		<edge from-layer="7298" from-port="2" to-layer="7300" to-port="0" />
		<edge from-layer="7299" from-port="0" to-layer="7300" to-port="1" />
		<edge from-layer="7300" from-port="2" to-layer="7301" to-port="0" />
		<edge from-layer="7301" from-port="1" to-layer="7302" to-port="1" />
		<edge from-layer="7302" from-port="2" to-layer="7304" to-port="0" />
		<edge from-layer="7303" from-port="0" to-layer="7304" to-port="1" />
		<edge from-layer="7304" from-port="2" to-layer="7305" to-port="0" />
		<edge from-layer="7305" from-port="2" to-layer="7330" to-port="1" />
		<edge from-layer="7305" from-port="2" to-layer="7306" to-port="0" />
		<edge from-layer="7306" from-port="2" to-layer="7315" to-port="0" />
		<edge from-layer="7307" from-port="0" to-layer="7308" to-port="0" />
		<edge from-layer="7308" from-port="1" to-layer="7311" to-port="0" />
		<edge from-layer="7309" from-port="0" to-layer="7310" to-port="0" />
		<edge from-layer="7310" from-port="1" to-layer="7311" to-port="1" />
		<edge from-layer="7311" from-port="2" to-layer="7313" to-port="0" />
		<edge from-layer="7312" from-port="0" to-layer="7313" to-port="1" />
		<edge from-layer="7313" from-port="2" to-layer="7314" to-port="0" />
		<edge from-layer="7314" from-port="1" to-layer="7315" to-port="1" />
		<edge from-layer="7315" from-port="2" to-layer="7317" to-port="0" />
		<edge from-layer="7316" from-port="0" to-layer="7317" to-port="1" />
		<edge from-layer="7317" from-port="2" to-layer="7318" to-port="0" />
		<edge from-layer="7318" from-port="2" to-layer="7327" to-port="0" />
		<edge from-layer="7319" from-port="0" to-layer="7320" to-port="0" />
		<edge from-layer="7320" from-port="1" to-layer="7323" to-port="0" />
		<edge from-layer="7321" from-port="0" to-layer="7322" to-port="0" />
		<edge from-layer="7322" from-port="1" to-layer="7323" to-port="1" />
		<edge from-layer="7323" from-port="2" to-layer="7325" to-port="0" />
		<edge from-layer="7324" from-port="0" to-layer="7325" to-port="1" />
		<edge from-layer="7325" from-port="2" to-layer="7326" to-port="0" />
		<edge from-layer="7326" from-port="1" to-layer="7327" to-port="1" />
		<edge from-layer="7327" from-port="2" to-layer="7329" to-port="0" />
		<edge from-layer="7328" from-port="0" to-layer="7329" to-port="1" />
		<edge from-layer="7329" from-port="2" to-layer="7330" to-port="0" />
		<edge from-layer="7330" from-port="2" to-layer="7355" to-port="1" />
		<edge from-layer="7330" from-port="2" to-layer="7331" to-port="0" />
		<edge from-layer="7331" from-port="2" to-layer="7340" to-port="0" />
		<edge from-layer="7332" from-port="0" to-layer="7333" to-port="0" />
		<edge from-layer="7333" from-port="1" to-layer="7336" to-port="0" />
		<edge from-layer="7334" from-port="0" to-layer="7335" to-port="0" />
		<edge from-layer="7335" from-port="1" to-layer="7336" to-port="1" />
		<edge from-layer="7336" from-port="2" to-layer="7338" to-port="0" />
		<edge from-layer="7337" from-port="0" to-layer="7338" to-port="1" />
		<edge from-layer="7338" from-port="2" to-layer="7339" to-port="0" />
		<edge from-layer="7339" from-port="1" to-layer="7340" to-port="1" />
		<edge from-layer="7340" from-port="2" to-layer="7342" to-port="0" />
		<edge from-layer="7341" from-port="0" to-layer="7342" to-port="1" />
		<edge from-layer="7342" from-port="2" to-layer="7343" to-port="0" />
		<edge from-layer="7343" from-port="2" to-layer="7352" to-port="0" />
		<edge from-layer="7344" from-port="0" to-layer="7345" to-port="0" />
		<edge from-layer="7345" from-port="1" to-layer="7348" to-port="0" />
		<edge from-layer="7346" from-port="0" to-layer="7347" to-port="0" />
		<edge from-layer="7347" from-port="1" to-layer="7348" to-port="1" />
		<edge from-layer="7348" from-port="2" to-layer="7350" to-port="0" />
		<edge from-layer="7349" from-port="0" to-layer="7350" to-port="1" />
		<edge from-layer="7350" from-port="2" to-layer="7351" to-port="0" />
		<edge from-layer="7351" from-port="1" to-layer="7352" to-port="1" />
		<edge from-layer="7352" from-port="2" to-layer="7354" to-port="0" />
		<edge from-layer="7353" from-port="0" to-layer="7354" to-port="1" />
		<edge from-layer="7354" from-port="2" to-layer="7355" to-port="0" />
		<edge from-layer="7355" from-port="2" to-layer="7430" to-port="0" />
		<edge from-layer="7356" from-port="0" to-layer="7357" to-port="0" />
		<edge from-layer="7357" from-port="1" to-layer="7360" to-port="0" />
		<edge from-layer="7358" from-port="0" to-layer="7359" to-port="0" />
		<edge from-layer="7359" from-port="1" to-layer="7360" to-port="1" />
		<edge from-layer="7360" from-port="2" to-layer="7362" to-port="0" />
		<edge from-layer="7361" from-port="0" to-layer="7362" to-port="1" />
		<edge from-layer="7362" from-port="2" to-layer="7363" to-port="0" />
		<edge from-layer="7363" from-port="1" to-layer="7364" to-port="1" />
		<edge from-layer="7364" from-port="2" to-layer="7366" to-port="0" />
		<edge from-layer="7365" from-port="0" to-layer="7366" to-port="1" />
		<edge from-layer="7366" from-port="2" to-layer="7367" to-port="0" />
		<edge from-layer="7367" from-port="2" to-layer="7376" to-port="0" />
		<edge from-layer="7368" from-port="0" to-layer="7369" to-port="0" />
		<edge from-layer="7369" from-port="1" to-layer="7372" to-port="0" />
		<edge from-layer="7370" from-port="0" to-layer="7371" to-port="0" />
		<edge from-layer="7371" from-port="1" to-layer="7372" to-port="1" />
		<edge from-layer="7372" from-port="2" to-layer="7374" to-port="0" />
		<edge from-layer="7373" from-port="0" to-layer="7374" to-port="1" />
		<edge from-layer="7374" from-port="2" to-layer="7375" to-port="0" />
		<edge from-layer="7375" from-port="1" to-layer="7376" to-port="1" />
		<edge from-layer="7376" from-port="2" to-layer="7378" to-port="0" />
		<edge from-layer="7377" from-port="0" to-layer="7378" to-port="1" />
		<edge from-layer="7378" from-port="2" to-layer="7379" to-port="0" />
		<edge from-layer="7379" from-port="2" to-layer="7380" to-port="0" />
		<edge from-layer="7379" from-port="2" to-layer="7404" to-port="1" />
		<edge from-layer="7380" from-port="2" to-layer="7389" to-port="0" />
		<edge from-layer="7381" from-port="0" to-layer="7382" to-port="0" />
		<edge from-layer="7382" from-port="1" to-layer="7385" to-port="0" />
		<edge from-layer="7383" from-port="0" to-layer="7384" to-port="0" />
		<edge from-layer="7384" from-port="1" to-layer="7385" to-port="1" />
		<edge from-layer="7385" from-port="2" to-layer="7387" to-port="0" />
		<edge from-layer="7386" from-port="0" to-layer="7387" to-port="1" />
		<edge from-layer="7387" from-port="2" to-layer="7388" to-port="0" />
		<edge from-layer="7388" from-port="1" to-layer="7389" to-port="1" />
		<edge from-layer="7389" from-port="2" to-layer="7391" to-port="0" />
		<edge from-layer="7390" from-port="0" to-layer="7391" to-port="1" />
		<edge from-layer="7391" from-port="2" to-layer="7392" to-port="0" />
		<edge from-layer="7392" from-port="2" to-layer="7401" to-port="0" />
		<edge from-layer="7393" from-port="0" to-layer="7394" to-port="0" />
		<edge from-layer="7394" from-port="1" to-layer="7397" to-port="0" />
		<edge from-layer="7395" from-port="0" to-layer="7396" to-port="0" />
		<edge from-layer="7396" from-port="1" to-layer="7397" to-port="1" />
		<edge from-layer="7397" from-port="2" to-layer="7399" to-port="0" />
		<edge from-layer="7398" from-port="0" to-layer="7399" to-port="1" />
		<edge from-layer="7399" from-port="2" to-layer="7400" to-port="0" />
		<edge from-layer="7400" from-port="1" to-layer="7401" to-port="1" />
		<edge from-layer="7401" from-port="2" to-layer="7403" to-port="0" />
		<edge from-layer="7402" from-port="0" to-layer="7403" to-port="1" />
		<edge from-layer="7403" from-port="2" to-layer="7404" to-port="0" />
		<edge from-layer="7404" from-port="2" to-layer="7405" to-port="0" />
		<edge from-layer="7404" from-port="2" to-layer="7429" to-port="1" />
		<edge from-layer="7405" from-port="2" to-layer="7414" to-port="0" />
		<edge from-layer="7406" from-port="0" to-layer="7407" to-port="0" />
		<edge from-layer="7407" from-port="1" to-layer="7410" to-port="0" />
		<edge from-layer="7408" from-port="0" to-layer="7409" to-port="0" />
		<edge from-layer="7409" from-port="1" to-layer="7410" to-port="1" />
		<edge from-layer="7410" from-port="2" to-layer="7412" to-port="0" />
		<edge from-layer="7411" from-port="0" to-layer="7412" to-port="1" />
		<edge from-layer="7412" from-port="2" to-layer="7413" to-port="0" />
		<edge from-layer="7413" from-port="1" to-layer="7414" to-port="1" />
		<edge from-layer="7414" from-port="2" to-layer="7416" to-port="0" />
		<edge from-layer="7415" from-port="0" to-layer="7416" to-port="1" />
		<edge from-layer="7416" from-port="2" to-layer="7417" to-port="0" />
		<edge from-layer="7417" from-port="2" to-layer="7426" to-port="0" />
		<edge from-layer="7418" from-port="0" to-layer="7419" to-port="0" />
		<edge from-layer="7419" from-port="1" to-layer="7422" to-port="0" />
		<edge from-layer="7420" from-port="0" to-layer="7421" to-port="0" />
		<edge from-layer="7421" from-port="1" to-layer="7422" to-port="1" />
		<edge from-layer="7422" from-port="2" to-layer="7424" to-port="0" />
		<edge from-layer="7423" from-port="0" to-layer="7424" to-port="1" />
		<edge from-layer="7424" from-port="2" to-layer="7425" to-port="0" />
		<edge from-layer="7425" from-port="1" to-layer="7426" to-port="1" />
		<edge from-layer="7426" from-port="2" to-layer="7428" to-port="0" />
		<edge from-layer="7427" from-port="0" to-layer="7428" to-port="1" />
		<edge from-layer="7428" from-port="2" to-layer="7429" to-port="0" />
		<edge from-layer="7429" from-port="2" to-layer="7430" to-port="1" />
		<edge from-layer="7430" from-port="2" to-layer="7505" to-port="0" />
		<edge from-layer="7431" from-port="0" to-layer="7432" to-port="0" />
		<edge from-layer="7432" from-port="1" to-layer="7435" to-port="0" />
		<edge from-layer="7433" from-port="0" to-layer="7434" to-port="0" />
		<edge from-layer="7434" from-port="1" to-layer="7435" to-port="1" />
		<edge from-layer="7435" from-port="2" to-layer="7437" to-port="0" />
		<edge from-layer="7436" from-port="0" to-layer="7437" to-port="1" />
		<edge from-layer="7437" from-port="2" to-layer="7438" to-port="0" />
		<edge from-layer="7438" from-port="1" to-layer="7439" to-port="1" />
		<edge from-layer="7439" from-port="2" to-layer="7441" to-port="0" />
		<edge from-layer="7440" from-port="0" to-layer="7441" to-port="1" />
		<edge from-layer="7441" from-port="2" to-layer="7442" to-port="0" />
		<edge from-layer="7442" from-port="2" to-layer="7451" to-port="0" />
		<edge from-layer="7443" from-port="0" to-layer="7444" to-port="0" />
		<edge from-layer="7444" from-port="1" to-layer="7447" to-port="0" />
		<edge from-layer="7445" from-port="0" to-layer="7446" to-port="0" />
		<edge from-layer="7446" from-port="1" to-layer="7447" to-port="1" />
		<edge from-layer="7447" from-port="2" to-layer="7449" to-port="0" />
		<edge from-layer="7448" from-port="0" to-layer="7449" to-port="1" />
		<edge from-layer="7449" from-port="2" to-layer="7450" to-port="0" />
		<edge from-layer="7450" from-port="1" to-layer="7451" to-port="1" />
		<edge from-layer="7451" from-port="2" to-layer="7453" to-port="0" />
		<edge from-layer="7452" from-port="0" to-layer="7453" to-port="1" />
		<edge from-layer="7453" from-port="2" to-layer="7454" to-port="0" />
		<edge from-layer="7454" from-port="2" to-layer="7479" to-port="1" />
		<edge from-layer="7454" from-port="2" to-layer="7455" to-port="0" />
		<edge from-layer="7455" from-port="2" to-layer="7464" to-port="0" />
		<edge from-layer="7456" from-port="0" to-layer="7457" to-port="0" />
		<edge from-layer="7457" from-port="1" to-layer="7460" to-port="0" />
		<edge from-layer="7458" from-port="0" to-layer="7459" to-port="0" />
		<edge from-layer="7459" from-port="1" to-layer="7460" to-port="1" />
		<edge from-layer="7460" from-port="2" to-layer="7462" to-port="0" />
		<edge from-layer="7461" from-port="0" to-layer="7462" to-port="1" />
		<edge from-layer="7462" from-port="2" to-layer="7463" to-port="0" />
		<edge from-layer="7463" from-port="1" to-layer="7464" to-port="1" />
		<edge from-layer="7464" from-port="2" to-layer="7466" to-port="0" />
		<edge from-layer="7465" from-port="0" to-layer="7466" to-port="1" />
		<edge from-layer="7466" from-port="2" to-layer="7467" to-port="0" />
		<edge from-layer="7467" from-port="2" to-layer="7476" to-port="0" />
		<edge from-layer="7468" from-port="0" to-layer="7469" to-port="0" />
		<edge from-layer="7469" from-port="1" to-layer="7472" to-port="0" />
		<edge from-layer="7470" from-port="0" to-layer="7471" to-port="0" />
		<edge from-layer="7471" from-port="1" to-layer="7472" to-port="1" />
		<edge from-layer="7472" from-port="2" to-layer="7474" to-port="0" />
		<edge from-layer="7473" from-port="0" to-layer="7474" to-port="1" />
		<edge from-layer="7474" from-port="2" to-layer="7475" to-port="0" />
		<edge from-layer="7475" from-port="1" to-layer="7476" to-port="1" />
		<edge from-layer="7476" from-port="2" to-layer="7478" to-port="0" />
		<edge from-layer="7477" from-port="0" to-layer="7478" to-port="1" />
		<edge from-layer="7478" from-port="2" to-layer="7479" to-port="0" />
		<edge from-layer="7479" from-port="2" to-layer="7480" to-port="0" />
		<edge from-layer="7479" from-port="2" to-layer="7504" to-port="1" />
		<edge from-layer="7480" from-port="2" to-layer="7489" to-port="0" />
		<edge from-layer="7481" from-port="0" to-layer="7482" to-port="0" />
		<edge from-layer="7482" from-port="1" to-layer="7485" to-port="0" />
		<edge from-layer="7483" from-port="0" to-layer="7484" to-port="0" />
		<edge from-layer="7484" from-port="1" to-layer="7485" to-port="1" />
		<edge from-layer="7485" from-port="2" to-layer="7487" to-port="0" />
		<edge from-layer="7486" from-port="0" to-layer="7487" to-port="1" />
		<edge from-layer="7487" from-port="2" to-layer="7488" to-port="0" />
		<edge from-layer="7488" from-port="1" to-layer="7489" to-port="1" />
		<edge from-layer="7489" from-port="2" to-layer="7491" to-port="0" />
		<edge from-layer="7490" from-port="0" to-layer="7491" to-port="1" />
		<edge from-layer="7491" from-port="2" to-layer="7492" to-port="0" />
		<edge from-layer="7492" from-port="2" to-layer="7501" to-port="0" />
		<edge from-layer="7493" from-port="0" to-layer="7494" to-port="0" />
		<edge from-layer="7494" from-port="1" to-layer="7497" to-port="0" />
		<edge from-layer="7495" from-port="0" to-layer="7496" to-port="0" />
		<edge from-layer="7496" from-port="1" to-layer="7497" to-port="1" />
		<edge from-layer="7497" from-port="2" to-layer="7499" to-port="0" />
		<edge from-layer="7498" from-port="0" to-layer="7499" to-port="1" />
		<edge from-layer="7499" from-port="2" to-layer="7500" to-port="0" />
		<edge from-layer="7500" from-port="1" to-layer="7501" to-port="1" />
		<edge from-layer="7501" from-port="2" to-layer="7503" to-port="0" />
		<edge from-layer="7502" from-port="0" to-layer="7503" to-port="1" />
		<edge from-layer="7503" from-port="2" to-layer="7504" to-port="0" />
		<edge from-layer="7504" from-port="2" to-layer="7505" to-port="1" />
		<edge from-layer="7505" from-port="2" to-layer="7507" to-port="0" />
		<edge from-layer="7506" from-port="0" to-layer="7507" to-port="1" />
		<edge from-layer="7507" from-port="2" to-layer="7509" to-port="0" />
		<edge from-layer="7508" from-port="0" to-layer="7509" to-port="1" />
		<edge from-layer="7509" from-port="2" to-layer="7518" to-port="0" />
		<edge from-layer="7510" from-port="0" to-layer="7511" to-port="0" />
		<edge from-layer="7511" from-port="1" to-layer="7514" to-port="0" />
		<edge from-layer="7512" from-port="0" to-layer="7513" to-port="0" />
		<edge from-layer="7513" from-port="1" to-layer="7514" to-port="1" />
		<edge from-layer="7514" from-port="2" to-layer="7516" to-port="0" />
		<edge from-layer="7515" from-port="0" to-layer="7516" to-port="1" />
		<edge from-layer="7516" from-port="2" to-layer="7517" to-port="0" />
		<edge from-layer="7517" from-port="1" to-layer="7518" to-port="1" />
		<edge from-layer="7518" from-port="2" to-layer="7519" to-port="0" />
		<edge from-layer="7519" from-port="1" to-layer="7520" to-port="0" />
	</edges>
	<rt_info>
		<Runtime_version value="2025.3.0-19807-44526285f24-releases/2025/3" />
		<conversion_parameters>
			<framework value="pytorch" />
			<is_python_object value="True" />
		</conversion_parameters>
		<nncf>
			<friendly_names_were_updated value="True" />
			<version value="2.18.0" />
			<weight_compression>
				<advanced_parameters value="{'statistics_path': None, 'lora_adapter_rank': 256, 'group_size_fallback_mode': 'ignore', 'min_adjusted_group_size': 16, 'awq_params': {'subset_size': 32, 'percent_to_apply': 0.002, 'alpha_min': 0.0, 'alpha_max': 1.0, 'steps': 100, 'prefer_data_aware_scaling': True}, 'scale_estimation_params': {'subset_size': 64, 'initial_steps': 5, 'scale_steps': 5, 'weight_penalty': -1.0}, 'gptq_params': {'damp_percent': 0.1, 'block_size': 128, 'subset_size': 128}, 'lora_correction_params': {'adapter_rank': 8, 'num_iterations': 3, 'apply_regularization': True, 'subset_size': 128, 'use_int8_adapters': True}, 'backend_params': {}, 'codebook': None}" />
				<all_layers value="False" />
				<awq value="False" />
				<backup_mode value="int8_asym" />
				<compression_format value="dequantize" />
				<gptq value="False" />
				<group_size value="128" />
				<ignored_scope value="[]" />
				<lora_correction value="False" />
				<mode value="int4_sym" />
				<ratio value="1" />
				<scale_estimation value="False" />
				<sensitivity_metric value="weight_quantization_error" />
			</weight_compression>
		</nncf>
	</rt_info>
</net>
